#map0 = affine_map<(d0) -> (500, d0 * 32)>
#map1 = affine_map<(d0) -> (d0 * 32 + 32, 1499)>
#map2 = affine_map<(d0)[s0] -> (d0 - s0 + 1)>
#map3 = affine_map<(d0)[s0] -> (d0 - s0)>
#map4 = affine_map<(d0) -> (d0 ceildiv 2, (d0 * 32 - 498) ceildiv 32)>
#map5 = affine_map<(d0) -> (47, 54, (d0 * 16 + 1014) floordiv 32 + 1, (d0 * 16 + 1214) floordiv 32 + 1, d0 + 39)>
#map6 = affine_map<(d0) -> (d0 * 16, d0 * 16 + 215)>
#map7 = affine_map<(d0) -> (d0 * 16 + 15)>
#map8 = affine_map<(d0) -> (d0 * 16 + 1214)>
#map9 = affine_map<(d0, d1) -> (d0 + 1000, d1 * -16 + d0 * 2 + 1215)>
#map10 = affine_map<(d0, d1) -> (-d0 + d1)>
#map11 = affine_map<(d0) -> (d0 * 16 + 1015, d0 * 16 + 1245)>
#map12 = affine_map<(d0, d1) -> (d0 * -16 + d1 - 15)>
#map13 = affine_map<(d0, d1) -> (0, (d0 - 1) ceildiv 2, (d1 * 32 - 1229) ceildiv 32)>
#map14 = affine_map<(d0) -> ((d0 + 1) floordiv 2 + 1, 16)>
#map15 = affine_map<(d0) -> (d0 * 16)>
#map16 = affine_map<(d0) -> (d0 * 16 + 1)>
#map17 = affine_map<(d0) -> (d0 * 16 + 32, d0 * 16 + 1000)>
#map18 = affine_map<(d0, d1) -> (d0 * -16 + d1)>
#map19 = affine_map<(d0, d1) -> (d0 * -16 + d1 - 1)>
#map20 = affine_map<(d0, d1, d2) -> (d0 * 16, d1 * 32, d2 * 32 - 999)>
#map21 = affine_map<(d0) -> (d0 * 32 - 1199)>
#map22 = affine_map<(d0) -> (d0 * 32)>
#map23 = affine_map<(d0, d1, d2) -> (d0 * -32 + d1 * 32 + d2 * 2 + 1, d2 + 1000)>
#map24 = affine_map<(d0, d1, d2) -> (d0 * 16, d1 * 32, d2 * 32 - 1199)>
#map25 = affine_map<(d0) -> (d0 * 32 - 999)>
#map26 = affine_map<(d0, d1, d2) -> (d0 * -32 + d1 * 32 + d2 * 2 + 1, d2 + 1200)>
#map27 = affine_map<(d0) -> (d0 + 1)>
#map28 = affine_map<(d0, d1) -> (d0 * 32 + 32, d1 + 1000)>
#map29 = affine_map<(d0, d1) -> (-d0 + d1 - 1)>
#map30 = affine_map<(d0, d1) -> (0, d0 * 16, d0 * 16 - 983, d1 * 32 - 1199)>
#map31 = affine_map<(d0) -> (d0 * 16 + 16)>
#map32 = affine_map<(d0, d1) -> (d0 * 16 + 48, d1 + 1000)>
#map33 = affine_map<(d0, d1, d2) -> (d0 * 16, d1 * 32, d0 * 32 - d2 * 32 + 1, d2 * 32 - 999, d2 * 32 - 1199)>
#map34 = affine_map<(d0, d1, d2) -> (500, d0 * 16 + 31, d1 * 32 + 31, d0 * 32 - d2 * 32 + 1031, d0 * 32 - d2 * 32 + 1230)>
#map35 = affine_map<(d0, d1, d2) -> (d0 * -32 + d1 * 32 + d2 - 31)>
#map36 = affine_map<(d0, d1) -> (d0 * 16 + 32, d1 + 1000)>
#map37 = affine_map<(d0, d1, d2) -> (d0 * 32, d1 + 1, d2 * -32 + d0 * 32 + d1 * 2 - 30)>
#map38 = affine_map<(d0, d1, d2) -> (d0 * 32 + 32, d1 * -32 + d0 * 32 + d2 * 2 + 1, d2 + 1000, d2 + 1200)>
#map39 = affine_map<(d0) -> (d0 + 1200)>
#map40 = affine_map<(d0, d1, d2) -> (d0 * 32 + 32, d1 * -32 + d0 * 32 + d2 * 2 + 1, d2 + 1000)>
#map41 = affine_map<(d0) -> (d0 + 1000)>
#map42 = affine_map<(d0, d1, d2) -> (d0 * 32 + 32, d1 * -32 + d0 * 32 + d2 * 2 + 1, d2 + 1200)>
#map43 = affine_map<(d0, d1)[s0] -> (d0 * 32 - d1 * 32 + s0 + 30)>
#map44 = affine_map<(d0, d1) -> (d0 * 32 - d1 * 32 + 1231)>
#map45 = affine_map<(d0, d1, d2) -> (d0 * 32 + 32, d1 * 32 - d2 * 32 + 2230)>
#map46 = affine_map<(d0, d1, d2)[s0] -> (d0 * -32 + d1 * 32 + d2 - s0 - 30)>
#map47 = affine_map<(d0, d1) -> (d0 * 32 - d1 * 32 + 2430)>
#map48 = affine_map<(d0, d1) -> (d0 * 32 + 32, d1 * 32 - d0 * 32 + 2230)>
#map49 = affine_map<(d0) -> (d0 * 16 + 31)>
#map50 = affine_map<(d0, d1) -> (d0 * -16 + d1 * 32)>
#map51 = affine_map<(d0) -> (d0 * 16 + 32)>
#map52 = affine_map<(d0) -> (d0 * 16 + 48)>
#map53 = affine_map<(d0, d1) -> (d0 * -16 + d1 - 31)>
#map54 = affine_map<(d0, d1, d2) -> (500, d0 * 16 + 32, d1 * 32 + 31, d0 * 32 - d2 * 32 + 1031)>
#map55 = affine_map<(d0, d1, d2) -> (d0 * -32 + d1 * 32 + d2 * 2 - 31)>
#map56 = affine_map<(d0, d1, d2) -> (d0 * 32, d1 * -32 + d0 * 32 + d2 * 64 + 31)>
#map57 = affine_map<(d0, d1, d2) -> (d0 * 32 + 32, d1 * 32 + 1031, d1 * 32 + 1231, d2 * -32 + d0 * 32 + d1 * 64 + 63)>
#map58 = affine_map<(d0) -> (d0 * 32 + 31)>
#map59 = affine_map<(d0, d1) -> (d0 * -32 + d1 - 31)>
#map60 = affine_map<(d0) -> (d0 * 16 + 1215)>
#map61 = affine_map<(d0, d1) -> (d0 * 32 + 31, d1 * 16 + 1015)>
#map62 = affine_map<(d0) -> (d0 * 16 + 1015)>
#map63 = affine_map<(d0, d1) -> (d0 * 32 + 31, d1 * 16 + 1215)>
#map64 = affine_map<(d0, d1) -> (d0 * 32 - d1 * 32 + 1031)>
#map65 = affine_map<(d0, d1, d2) -> (500, d0 * 16 + 31, d1 * 32 + 31, d0 * 32 - d2 * 32 + 1230)>
#map66 = affine_map<(d0, d1, d2) -> (d0 * -32 + d1 * 32 + d2 * 2 - 30)>
#map67 = affine_map<(d0, d1) -> (d0 * 32 + 32, d1 + 1200)>
#map68 = affine_map<(d0) -> (d0 * 16 + 48, d0 * 16 + 1031)>
#map69 = affine_map<(d0, d1) -> (d0 * 16, d0 * 16 - 983, d1 * 32 - 1199)>
#map70 = affine_map<(d0) -> ((d0 + 2) ceildiv 2)>
#map71 = affine_map<(d0, d1) -> (47, (d0 * 16 + 1029) floordiv 32 + 1, d0 - d1 + 70)>
#map72 = affine_map<(d0, d1) -> (d0 * 32 + 32, d1 * 16 + 1000)>
#map73 = affine_map<(d0, d1, d2) -> (0, d0 * 16, d0 * 32 - d1 * 32 + 1, d1 * 32 - 999, d2 * 32 - 1199)>
#map74 = affine_map<(d0, d1) -> (500, d0 * 16 + 31, d0 * 32 - d1 * 32 + 1230)>
#map75 = affine_map<(d0, d1) -> (d0 * 32 + 32, d1 * 16 + 1031)>
#map76 = affine_map<(d0) -> (d0 * 2 + 1199)>
#map77 = affine_map<(d0) -> (1030, d0 + 1200)>
#map78 = affine_map<(d0) -> (1000, d0 * 32 + 32)>
#map79 = affine_map<(d0) -> ((d0 - 1) ceildiv 2)>
#map80 = affine_map<(d0) -> (d0 * 16, 729)>
#map81 = affine_map<(d0, d1) -> (d0 * -32 + d1 * 2 + 1729, d1 + 1000)>
#map82 = affine_map<(d0) -> ((d0 * 16 + 1215) ceildiv 32)>
#map83 = affine_map<(d0) -> (47, (d0 * 16 + 1014) floordiv 32 + 1)>
#map84 = affine_map<(d0) -> (0, (d0 - 1) ceildiv 2)>
#map85 = affine_map<(d0, d1, d2) -> (500, d0 * 16 + 32, d1 * 32 + 32, d0 * 32 - d2 * 32 + 1031)>
#map86 = affine_map<(d0, d1, d2) -> (d0 * 32, d1 * -32 + d0 * 32 + d2 * 2 - 31)>
#map87 = affine_map<(d0) -> (d0 * 16, 305)>
#map88 = affine_map<(d0, d1) -> (d0 * -32 + d1 * 2 + 1505, d1 + 1200)>
#map89 = affine_map<(d0, d1) -> (d0 * 32, d1 + 1)>
#map90 = affine_map<(d0) -> ((d0 * 16 + 1015) ceildiv 32)>
#map91 = affine_map<(d0) -> (54, (d0 * 16 + 1214) floordiv 32 + 1, d0 + 39)>
#map92 = affine_map<(d0, d1, d2) -> (0, d0 * 16, d1 * 32 - 999, d2 * 32 - 1199)>
#map93 = affine_map<(d0, d1, d2) -> (d0 * 32, d1 * -32 + d0 * 32 + d2 * 2 - 30)>
#map94 = affine_map<(d0, d1) -> (d0 * 32, d1 * 16 + 32)>
#map95 = affine_map<(d0, d1, d2) -> (d0 * 32, d1 * 32 - d2 * 32 + 1231)>
#map96 = affine_map<(d0, d1, d2) -> (d0 * 32 + 32, d1 * 32 + 1231, d2 * -32 + d0 * 32 + d1 * 64 + 63)>
#map97 = affine_map<(d0) -> (1, d0 * 32)>
#map98 = affine_map<()[s0] -> ((s0 - 1) floordiv 16 + 1)>
#map99 = affine_map<()[s0] -> (s0 - 1)>
#map100 = affine_map<()[s0] -> ((s0 - 1) ceildiv 32)>
#map101 = affine_map<()[s0, s1] -> ((s0 + s1 - 2) floordiv 32 + 1)>
#map102 = affine_map<(d0)[s0] -> (s0, d0 * 32)>
#map103 = affine_map<(d0)[s0, s1] -> (d0 * 32 + 32, s0 + s1 - 1)>
#map104 = affine_map<(d0)[s0] -> (d0 ceildiv 2, (d0 * 32 - s0 + 2) ceildiv 32)>
#map105 = affine_map<(d0)[s0, s1, s2] -> ((s0 + s1 - 2) floordiv 32 + 1, (s0 + s2 - 2) floordiv 32 + 1, (d0 * 16 + s1 + 14) floordiv 32 + 1, (d0 * 16 + s2 + 14) floordiv 32 + 1, (d0 * 32 + s2 + 29) floordiv 32 + 1)>
#map106 = affine_map<(d0)[s0, s1] -> (d0 * 16, d0 * 16 - s0 + s1 + 15)>
#map107 = affine_map<(d0)[s0] -> (d0 * 16 + s0 + 14)>
#map108 = affine_map<(d0, d1)[s0, s1] -> (d0 + s0, d1 * -16 + d0 * 2 + s1 + 15)>
#map109 = affine_map<(d0)[s0, s1] -> (d0 * 16 + s0 + 15, d0 * 16 + s1 + 45)>
#map110 = affine_map<(d0, d1)[s0] -> (0, (d0 - 1) ceildiv 2, (d1 * 32 - s0 - 29) ceildiv 32)>
#map111 = affine_map<(d0)[s0] -> ((d0 + 1) floordiv 2 + 1, (s0 - 1) floordiv 32 + 1)>
#map112 = affine_map<(d0)[s0] -> (d0 * 16 + 32, d0 * 16 + s0)>
#map113 = affine_map<(d0, d1, d2)[s0] -> (d0 * 16, d1 * 32, d2 * 32 - s0 + 1)>
#map114 = affine_map<(d0)[s0] -> (d0 * 32 - s0 + 1)>
#map115 = affine_map<(d0, d1, d2)[s0] -> (d0 * -32 + d1 * 32 + d2 * 2 + 1, d2 + s0)>
#map116 = affine_map<(d0, d1)[s0] -> (d0 * 32 + 32, d1 + s0)>
#map117 = affine_map<(d0, d1)[s0, s1] -> (0, d0 * 16, d0 * 16 - s0 + 17, d1 * 32 - s1 + 1)>
#map118 = affine_map<(d0, d1)[s0] -> (d0 * 16 + 48, d1 + s0)>
#map119 = affine_map<(d0, d1, d2)[s0, s1] -> (d0 * 16, d1 * 32, d0 * 32 - d2 * 32 + 1, d2 * 32 - s0 + 1, d2 * 32 - s1 + 1)>
#map120 = affine_map<(d0, d1, d2)[s0, s1, s2] -> (s0, d0 * 16 + 31, d1 * 32 + 31, d0 * 32 - d2 * 32 + s1 + 31, d0 * 32 - d2 * 32 + s2 + 30)>
#map121 = affine_map<(d0, d1)[s0] -> (d0 * 16 + 32, d1 + s0)>
#map122 = affine_map<(d0, d1, d2)[s0, s1] -> (d0 * 32 + 32, d1 * -32 + d0 * 32 + d2 * 2 + 1, d2 + s0, d2 + s1)>
#map123 = affine_map<(d0)[s0] -> (d0 + s0)>
#map124 = affine_map<(d0, d1, d2)[s0] -> (d0 * 32 + 32, d1 * -32 + d0 * 32 + d2 * 2 + 1, d2 + s0)>
#map125 = affine_map<(d0, d1)[s0] -> (d0 * 32 - d1 * 32 + s0 + 31)>
#map126 = affine_map<(d0, d1, d2)[s0, s1] -> (d0 * 32 + 32, d1 * 32 - d2 * 32 + s0 + s1 + 30)>
#map127 = affine_map<(d0, d1)[s0] -> (d0 * 32 - d1 * 32 + s0 * 2 + 30)>
#map128 = affine_map<(d0, d1)[s0, s1] -> (d0 * 32 + 32, d1 * 32 - d0 * 32 + s0 + s1 + 30)>
#map129 = affine_map<(d0, d1, d2)[s0, s1] -> (s0, d0 * 16 + 32, d1 * 32 + 31, d0 * 32 - d2 * 32 + s1 + 31)>
#map130 = affine_map<(d0, d1, d2)[s0, s1] -> (d0 * 32 + 32, d1 * 32 + s0 + 31, d1 * 32 + s1 + 31, d2 * -32 + d0 * 32 + d1 * 64 + 63)>
#map131 = affine_map<(d0)[s0] -> (d0 * 16 + s0 + 15)>
#map132 = affine_map<(d0, d1)[s0] -> (d0 * 32 + 31, d1 * 16 + s0 + 15)>
#map133 = affine_map<(d0, d1, d2)[s0, s1] -> (s0, d0 * 16 + 31, d1 * 32 + 31, d0 * 32 - d2 * 32 + s1 + 30)>
#map134 = affine_map<(d0)[s0] -> (d0 * 16 + 48, d0 * 16 + s0 + 31)>
#map135 = affine_map<(d0, d1)[s0, s1] -> (d0 * 16, d0 * 16 - s0 + 17, d1 * 32 - s1 + 1)>
#map136 = affine_map<(d0, d1)[s0, s1, s2] -> ((s0 + s1 - 2) floordiv 32 + 1, (d0 * 16 + s1 + 29) floordiv 32 + 1, (d0 * 32 - d1 * 32 + s1 + s2 + 28) floordiv 32 + 1)>
#map137 = affine_map<(d0, d1)[s0] -> (d0 * 32 + 32, d1 * 16 + s0)>
#map138 = affine_map<(d0, d1, d2)[s0, s1] -> (0, d0 * 16, d0 * 32 - d1 * 32 + 1, d1 * 32 - s0 + 1, d2 * 32 - s1 + 1)>
#map139 = affine_map<(d0, d1)[s0, s1] -> (s0, d0 * 16 + 31, d0 * 32 - d1 * 32 + s1 + 30)>
#map140 = affine_map<(d0, d1)[s0] -> (d0 * 32 + 32, d1 * 16 + s0 + 31)>
#map141 = affine_map<()[s0] -> (32, s0)>
#map142 = affine_map<()[s0, s1] -> (s0, s1 + 30)>
#map143 = affine_map<()[s0, s1, s2] -> (16, s0, s1 - s2 + 1)>
#map144 = affine_map<(d0)[s0] -> (d0 * 2 + s0 - 1)>
#map145 = affine_map<(d0)[s0, s1] -> (s0 + 30, d0 + s1)>
#map146 = affine_map<()[s0] -> ((s0 - 1) floordiv 32 + 1)>
#map147 = affine_map<(d0)[s0] -> (s0, d0 * 32 + 32)>
#map148 = affine_map<()[s0, s1] -> ((s0 + s1 - 1) ceildiv 32)>
#map149 = affine_map<(d0)[s0, s1] -> (d0 * 16, s1 * 32 - s0 + 1)>
#map150 = affine_map<()[s0] -> (s0 * 32)>
#map151 = affine_map<(d0, d1)[s0, s1] -> (d0 * -32 + s1 * 32 + d1 * 2 + 1, d1 + s0)>
#map152 = affine_map<(d0)[s0] -> ((d0 * 16 + s0 + 15) ceildiv 32)>
#map153 = affine_map<(d0)[s0, s1] -> ((s0 + s1 - 2) floordiv 32 + 1, (d0 * 16 + s1 + 14) floordiv 32 + 1)>
#map154 = affine_map<(d0, d1, d2)[s0, s1] -> (s0, d0 * 16 + 32, d1 * 32 + 32, d0 * 32 - d2 * 32 + s1 + 31)>
#map155 = affine_map<(d0)[s0, s1] -> ((s0 + s1 - 2) floordiv 32 + 1, (d0 * 16 + s1 + 14) floordiv 32 + 1, (d0 * 32 + s1 + 29) floordiv 32 + 1)>
#map156 = affine_map<(d0, d1, d2)[s0, s1] -> (0, d0 * 16, d1 * 32 - s0 + 1, d2 * 32 - s1 + 1)>
#map157 = affine_map<(d0, d1, d2)[s0] -> (d0 * 32, d1 * 32 - d2 * 32 + s0 + 31)>
#map158 = affine_map<(d0, d1, d2)[s0] -> (d0 * 32 + 32, d1 * 32 + s0 + 31, d2 * -32 + d0 * 32 + d1 * 64 + 63)>
#set0 = affine_set<(d0) : (d0 * 16 - 499 == 0)>
#set1 = affine_set<() : (19 == 0)>
#set2 = affine_set<(d0, d1) : (d0 * 16 - (d1 * 32 - 1214) == 0)>
#set3 = affine_set<(d0) : ((d0 + 1) mod 2 == 0)>
#set4 = affine_set<(d0) : ((d0 * 16 + 37218) mod 32 == 0)>
#set5 = affine_set<(d0, d1, d2) : (d0 - d1 * 2 == 0, d0 - d2 * 2 == 0)>
#set6 = affine_set<(d0) : (d0 mod 2 == 0)>
#set7 = affine_set<(d0, d1, d2) : (d0 - (d1 * 32 + d2 - 1198) ceildiv 32 >= 0)>
#set8 = affine_set<(d0, d1) : (d0 - (d1 * 2 - 1) == 0)>
#set9 = affine_set<(d0, d1, d2) : (d1 floordiv 16 - d0 - 1 >= 0, d2 + d1 floordiv 32 - d0 - 1 >= 0)>
#set10 = affine_set<(d0, d1, d2) : (d0 - (d1 - 15) ceildiv 16 >= 0, d0 - (d2 * 32 + d1 - 1198) ceildiv 32 >= 0)>
#set11 = affine_set<(d0, d1, d2) : (-500 >= 0, d1 * 2 - d0 - 63 >= 0, d1 + d2 - d0 - 32 >= 0, d1 - d0 + 5 >= 0)>
#set12 = affine_set<(d0, d1, d2) : (d0 - (d1 * 2 - 1) == 0, -d0 + 29 >= 0, d0 - (d2 * 32 - 999) ceildiv 16 >= 0, d0 - (d2 * 32 - 1199) ceildiv 16 >= 0)>
#set13 = affine_set<(d0, d1, d2) : (d0 - (d1 * 32 + d2 * 32 - 499) ceildiv 32 >= 0, d0 - (d1 * 32 + d2 * 32 - 999) ceildiv 32 >= 0, d0 - d2 * 2 >= 0, d1 - (d2 + 1) >= 0, -d2 + 36 >= 0)>
#set14 = affine_set<(d0, d1) : (d0 - (d1 * 2 + 1) == 0)>
#set15 = affine_set<(d0, d1, d2) : (d0 - d1 * 2 == 0, d0 - d2 * 2 == 0, -d0 + 29 >= 0)>
#set16 = affine_set<(d0, d1, d2) : (d0 - d1 * 2 == 0, -d0 + 29 >= 0, d2 * 2 - d0 - 63 >= 0, d0 - (d2 * 32 - 1199) ceildiv 16 >= 0)>
#set17 = affine_set<(d0, d1, d2) : (499 >= 0, d1 * 2 - d0 - 63 >= 0, d1 + d2 - d0 - 32 >= 0, d1 - d0 + 5 >= 0)>
#set18 = affine_set<(d0, d1, d2) : (d0 - (d1 * 2 - 1) == 0, -d0 + 29 >= 0, d2 * 2 - d0 - 63 >= 0, d0 - (d2 * 32 - 1199) ceildiv 16 >= 0)>
#set19 = affine_set<(d0, d1, d2) : (d0 - d1 * 2 == 0, -d0 + 29 >= 0, d2 * 2 - d0 - 63 >= 0, d0 - (d2 * 32 - 1199) ceildiv 16 >= 0)>
#set20 = affine_set<(d0) : (d0 - 31 >= 0)>
#set21 = affine_set<(d0, d1, d2) : (d0 - d1 * 2 == 0, d0 - (d2 * 32 - 999) ceildiv 16 >= 0)>
#set22 = affine_set<(d0, d1) : (d0 - d1 * 2 == 0)>
#set23 = affine_set<(d0, d1) : (-d0 + 29 >= 0, d1 * 2 - d0 - 1 >= 0, d0 - (d1 * 32 - 1199) ceildiv 16 >= 0)>
#set24 = affine_set<(d0, d1) : (d1 * 2 - d0 - 32 >= 0, d1 - d0 + 20 >= 0)>
#set25 = affine_set<(d0, d1) : (d0 - d1 * 2 == 0, -d0 + 29 >= 0)>
#set26 = affine_set<(d0) : ((d0 * 16 + 1030) mod 32 == 0)>
#set27 = affine_set<() : (21 == 0)>
#set28 = affine_set<(d0) : (-200 >= 0, d0 + 1 == 0)>
#set29 = affine_set<() : (14 == 0)>
#set30 = affine_set<(d0) : (-d0 + 46 >= 0, -d0 + 64 >= 0)>
#set31 = affine_set<(d0) : (-d0 + 15 >= 0)>
#set32 = affine_set<(d0) : (-d0 + 46 >= 0, -d0 + 61 >= 0)>
#set33 = affine_set<(d0, d1) : (d1 floordiv 32 - d0 >= 0)>
#set34 = affine_set<(d0, d1) : (d0 - (d1 + 306) ceildiv 32 >= 0)>
#set35 = affine_set<(d0, d1) : (d1 floordiv 16 - d0 - 1 >= 0)>
#set36 = affine_set<(d0, d1, d2) : (-d0 + 29 >= 0, d1 * 2 - d0 - 1 >= 0, d0 - (d2 * 32 - 1199) ceildiv 16 >= 0)>
#set37 = affine_set<(d0, d1, d2) : (d1 * 2 - d0 - 32 >= 0, d1 + d2 - d0 - 16 >= 0, d1 - d0 + 20 >= 0)>
#set38 = affine_set<(d0, d1, d2) : (d0 - (d1 * 32 + d2 * 32 - 1230) ceildiv 32 >= 0)>
#set39 = affine_set<(d0, d1, d2) : (d0 - (d1 * 32 + d2 * 32 - 499) ceildiv 32 >= 0, d0 - d2 * 2 >= 0, -d2 + 36 >= 0)>
#set40 = affine_set<(d0, d1) : (-d0 + 29 >= 0, d0 - (d1 * 32 - 1199) ceildiv 16 >= 0)>
#set41 = affine_set<(d0) : (199 >= 0, d0 + 1 == 0)>
#set42 = affine_set<(d0) : (d0 == 0)>
#set43 = affine_set<(d0)[s0] : (d0 * 16 - (s0 - 1) == 0)>
#set44 = affine_set<()[s0] : ((s0 + 31) mod 32 == 0)>
#set45 = affine_set<(d0, d1)[s0] : (d0 * 16 - (d1 * 32 - s0 - 14) == 0)>
#set46 = affine_set<(d0)[s0] : ((d0 * 16 + s0 * 31 + 18) mod 32 == 0)>
#set47 = affine_set<(d0, d1, d2)[s0] : (d0 - (d1 * 32 + d2 - s0 + 2) ceildiv 32 >= 0)>
#set48 = affine_set<(d0, d1, d2)[s0] : (d0 - (d1 - 15) ceildiv 16 >= 0, d0 - (d2 * 32 + d1 - s0 + 2) ceildiv 32 >= 0)>
#set49 = affine_set<(d0, d1, d2)[s0, s1, s2] : (s0 - s1 >= 0, d1 * 2 + (-s1) floordiv 16 - d0 >= 0, d1 + d2 + (-s1) floordiv 32 - d0 >= 0, (d1 * 32 + s2 - s1 - 31) floordiv 32 - d0 >= 0)>
#set50 = affine_set<(d0, d1, d2)[s0, s1, s2] : (d0 - (d1 * 2 - 1) == 0, -d0 + s0 floordiv 16 - 2 >= 0, d0 - (d2 * 32 - s1 + 1) ceildiv 16 >= 0, d0 - (d2 * 32 - s2 + 1) ceildiv 16 >= 0)>
#set51 = affine_set<(d0, d1, d2)[s0, s1, s2] : (d0 - (d1 * 32 + d2 * 32 - s0 + 1) ceildiv 32 >= 0, d0 - (d1 * 32 + d2 * 32 - s1 + 1) ceildiv 32 >= 0, d0 - d2 * 2 >= 0, d1 - (d2 + 1) >= 0, -d2 + s2 floordiv 32 - 1 >= 0)>
#set52 = affine_set<(d0, d1, d2)[s0] : (d0 - d1 * 2 == 0, d0 - d2 * 2 == 0, -d0 + s0 floordiv 16 - 2 >= 0)>
#set53 = affine_set<(d0, d1, d2)[s0, s1, s2] : (d0 - d1 * 2 == 0, -d0 + s0 floordiv 16 - 2 >= 0, d2 * 2 + (-s1) floordiv 16 - d0 >= 0, d0 - (d2 * 32 - s2 + 1) ceildiv 16 >= 0)>
#set54 = affine_set<(d0, d1, d2)[s0, s1, s2] : (s1 - s0 - 1 >= 0, d1 * 2 + (-s1) floordiv 16 - d0 >= 0, d1 + d2 + (-s1) floordiv 32 - d0 >= 0, (d1 * 32 + s2 - s1 - 31) floordiv 32 - d0 >= 0)>
#set55 = affine_set<(d0, d1, d2)[s0, s1, s2] : (d0 - (d1 * 2 - 1) == 0, -d0 + s0 floordiv 16 - 2 >= 0, d2 * 2 + (-s1) floordiv 16 - d0 >= 0, d0 - (d2 * 32 - s2 + 1) ceildiv 16 >= 0)>
#set56 = affine_set<(d0, d1, d2)[s0, s1, s2] : (d0 - d1 * 2 == 0, -d0 + s0 floordiv 16 - 2 >= 0, d2 * 2 + (-s1) floordiv 16 - d0 >= 0, d0 - (d2 * 32 - s2 + 1) ceildiv 16 >= 0)>
#set57 = affine_set<(d0)[s0] : (d0 - (s0 - 16) ceildiv 16 >= 0)>
#set58 = affine_set<(d0, d1, d2)[s0] : (d0 - d1 * 2 == 0, d0 - (d2 * 32 - s0 + 1) ceildiv 16 >= 0)>
#set59 = affine_set<(d0, d1)[s0, s1] : (-d0 + s0 floordiv 16 - 2 >= 0, d1 * 2 - d0 - 1 >= 0, d0 - (d1 * 32 - s1 + 1) ceildiv 16 >= 0)>
#set60 = affine_set<(d0, d1)[s0, s1] : (d1 * 2 + (-s0) floordiv 16 - d0 >= 0, (d1 * 32 + s1 - s0 - 31) floordiv 32 - d0 >= 0)>
#set61 = affine_set<(d0, d1)[s0] : (d0 - d1 * 2 == 0, -d0 + s0 floordiv 16 - 2 >= 0)>
#set62 = affine_set<(d0)[s0] : ((d0 * 16 + s0 + 30) mod 32 == 0)>
#set63 = affine_set<()[s0, s1] : ((s0 + s1 + 29) mod 32 == 0)>
#set64 = affine_set<(d0)[s0, s1] : (s0 - s1 >= 0, d0 + 1 == 0)>
#set65 = affine_set<()[s0] : ((s0 + 30) mod 32 == 0)>
#set66 = affine_set<(d0)[s0, s1, s2, s3] : (-d0 + (s0 + s1 - 2) floordiv 32 >= 0, -d0 + (s3 * 16 + s2 + 14) floordiv 32 >= 0)>
#set67 = affine_set<(d0)[s0] : (-d0 + (s0 - 1) floordiv 32 >= 0)>
#set68 = affine_set<(d0, d1)[s0, s1] : (d0 - (d1 + s1 * 32 - s0 + 2) ceildiv 32 >= 0)>
#set69 = affine_set<(d0, d1, d2)[s0, s1] : (-d0 + s0 floordiv 16 - 2 >= 0, d1 * 2 - d0 - 1 >= 0, d0 - (d2 * 32 - s1 + 1) ceildiv 16 >= 0)>
#set70 = affine_set<(d0, d1, d2)[s0, s1] : (d1 * 2 + (-s0) floordiv 16 - d0 >= 0, d1 + d2 + (-s0) floordiv 32 - d0 >= 0, (d1 * 32 + s1 - s0 - 31) floordiv 32 - d0 >= 0)>
#set71 = affine_set<(d0, d1, d2)[s0] : (d0 - (d1 * 32 + d2 * 32 - s0 - 30) ceildiv 32 >= 0)>
#set72 = affine_set<(d0, d1, d2)[s0, s1] : (d0 - (d1 * 32 + d2 * 32 - s0 + 1) ceildiv 32 >= 0, d0 - d2 * 2 >= 0, -d2 + s1 floordiv 32 - 1 >= 0)>
#set73 = affine_set<(d0, d1)[s0, s1] : (-d0 + s0 floordiv 16 - 2 >= 0, d0 - (d1 * 32 - s1 + 1) ceildiv 16 >= 0)>
#set74 = affine_set<(d0)[s0, s1] : (s1 - s0 - 1 >= 0, d0 + 1 == 0)>
module attributes {llvm.data_layout = "e-m:e-p270:32:32-p271:32:32-p272:64:64-i64:64-f80:128-n8:16:32:64-S128", llvm.target_triple = "x86_64-unknown-linux-gnu"}  {
  llvm.mlir.global internal constant @str8("hz\00")
  llvm.mlir.global internal constant @str7("ey\00")
  llvm.mlir.global internal constant @str6("==END   DUMP_ARRAYS==\0A\00")
  llvm.mlir.global internal constant @str5("\0Aend   dump: %s\0A\00")
  llvm.mlir.global internal constant @str4("%0.2lf \00")
  llvm.mlir.global internal constant @str3("\0A\00")
  llvm.mlir.global internal constant @str2("ex\00")
  llvm.mlir.global internal constant @str1("begin dump: %s\00")
  llvm.mlir.global internal constant @str0("==BEGIN DUMP_ARRAYS==\0A\00")
  llvm.mlir.global external @stderr() : !llvm.ptr<struct<"struct._IO_FILE", (i32, ptr<i8>, ptr<i8>, ptr<i8>, ptr<i8>, ptr<i8>, ptr<i8>, ptr<i8>, ptr<i8>, ptr<i8>, ptr<i8>, ptr<i8>, ptr<struct<"struct._IO_marker", opaque>>, ptr<struct<"struct._IO_FILE">>, i32, i32, i64, i16, i8, array<1 x i8>, ptr<i8>, i64, ptr<struct<"struct._IO_codecvt", opaque>>, ptr<struct<"struct._IO_wide_data", opaque>>, ptr<struct<"struct._IO_FILE">>, ptr<i8>, i64, i32, array<20 x i8>)>>
  llvm.func @fprintf(!llvm.ptr<struct<"struct._IO_FILE", (i32, ptr<i8>, ptr<i8>, ptr<i8>, ptr<i8>, ptr<i8>, ptr<i8>, ptr<i8>, ptr<i8>, ptr<i8>, ptr<i8>, ptr<i8>, ptr<struct<"struct._IO_marker", opaque>>, ptr<struct<"struct._IO_FILE">>, i32, i32, i64, i16, i8, array<1 x i8>, ptr<i8>, i64, ptr<struct<"struct._IO_codecvt", opaque>>, ptr<struct<"struct._IO_wide_data", opaque>>, ptr<struct<"struct._IO_FILE">>, ptr<i8>, i64, i32, array<20 x i8>)>>, !llvm.ptr<i8>, ...) -> !llvm.i32
  func @main(%arg0: i32, %arg1: !llvm.ptr<ptr<i8>>) -> i32 {
    %c500_i32 = constant 500 : i32
    %c1000_i32 = constant 1000 : i32
    %c1200_i32 = constant 1200 : i32
    %c0_i32 = constant 0 : i32
    %c2_i32 = constant 2 : i32
    %c3_i32 = constant 3 : i32
    %c1_i32 = constant 1 : i32
    %c1199 = constant 1199 : index
    %c1200 = constant 1200 : index
    %c999 = constant 999 : index
    %c499 = constant 499 : index
    %c500 = constant 500 : index
    %c0 = constant 0 : index
    %0 = alloc() : memref<1000x1200xf64>
    %1 = alloc() : memref<1000x1200xf64>
    %2 = alloc() : memref<1000x1200xf64>
    %3 = alloc() : memref<500xf64>
    br ^bb1(%c0_i32 : i32)
  ^bb1(%4: i32):  // 2 preds: ^bb0, ^bb2
    %5 = cmpi "slt", %4, %c500_i32 : i32
    %6 = index_cast %4 : i32 to index
    cond_br %5, ^bb2, ^bb3(%c0_i32 : i32)
  ^bb2:  // pred: ^bb1
    %7 = sitofp %4 : i32 to f64
    store %7, %3[%6] : memref<500xf64>
    %8 = addi %4, %c1_i32 : i32
    br ^bb1(%8 : i32)
  ^bb3(%9: i32):  // 2 preds: ^bb1, ^bb7
    %10 = cmpi "slt", %9, %c1000_i32 : i32
    %11 = index_cast %9 : i32 to index
    cond_br %10, ^bb5(%c0_i32 : i32), ^bb4
  ^bb4:  // pred: ^bb3
    affine.for %arg2 = -1 to 32 {
      affine.if #set0(%arg2) {
        affine.if #set1() {
          call @S0(%1, %c499, %3, %c0) : (memref<1000x1200xf64>, index, memref<500xf64>, index) -> ()
          affine.for %arg3 = 16 to 47 {
            affine.for %arg4 = max #map0(%arg3) to min #map1(%arg3) {
              %31 = affine.apply #map2(%arg4)[%c500]
              call @S1(%1, %c499, %31, %2) : (memref<1000x1200xf64>, index, index, memref<1000x1200xf64>) -> ()
            }
            affine.for %arg4 = max #map0(%arg3) to min #map1(%arg3) {
              %31 = affine.apply #map3(%arg4)[%c500]
              call @S3(%2, %c499, %31, %1, %0) : (memref<1000x1200xf64>, index, index, memref<1000x1200xf64>, memref<1000x1200xf64>) -> ()
            }
          }
        }
      }
      affine.for %arg3 = max #map4(%arg2) to min #map5(%arg2) {
        affine.if #set2(%arg2, %arg3) {
          affine.if #set3(%arg2) {
            affine.for %arg4 = max #map6(%arg2) to #map7(%arg2) {
              affine.for %arg5 = #map8(%arg2) to min #map9(%arg2, %arg4) {
                affine.if #set4(%arg2) {
                  %31 = affine.apply #map10(%arg4, %arg5)
                  call @S0(%1, %arg4, %3, %31) : (memref<1000x1200xf64>, index, memref<500xf64>, index) -> ()
                }
              }
            }
            affine.if #set4(%arg2) {
              %31 = affine.apply #map7(%arg2)
              call @S2(%0, %31, %c0, %2) : (memref<1000x1200xf64>, index, index, memref<1000x1200xf64>) -> ()
            }
            affine.for %arg4 = #map8(%arg2) to min #map11(%arg2) {
              affine.if #set4(%arg2) {
                %31 = affine.apply #map7(%arg2)
                %32 = affine.apply #map12(%arg2, %arg4)
                call @S0(%1, %31, %3, %32) : (memref<1000x1200xf64>, index, memref<500xf64>, index) -> ()
              }
            }
          }
        }
        affine.for %arg4 = max #map13(%arg2, %arg3) to min #map14(%arg2) {
          affine.if #set5(%arg2, %arg3, %arg4) {
            affine.if #set6(%arg2) {
              %31 = affine.apply #map15(%arg2)
              call @S0(%1, %31, %3, %c0) : (memref<1000x1200xf64>, index, memref<500xf64>, index) -> ()
            }
            affine.for %arg5 = #map16(%arg2) to min #map17(%arg2) {
              affine.if #set6(%arg2) {
                %31 = affine.apply #map15(%arg2)
                %32 = affine.apply #map18(%arg2, %arg5)
                call @S1(%1, %31, %32, %2) : (memref<1000x1200xf64>, index, index, memref<1000x1200xf64>) -> ()
              }
            }
            affine.for %arg5 = #map16(%arg2) to min #map17(%arg2) {
              affine.if #set6(%arg2) {
                %31 = affine.apply #map15(%arg2)
                %32 = affine.apply #map19(%arg2, %arg5)
                call @S3(%2, %31, %32, %1, %0) : (memref<1000x1200xf64>, index, index, memref<1000x1200xf64>, memref<1000x1200xf64>) -> ()
              }
            }
          }
          affine.for %arg5 = max #map20(%arg2, %arg3, %arg4) to #map21(%arg3) {
            affine.for %arg6 = #map22(%arg3) to min #map23(%arg2, %arg3, %arg5) {
              %31 = affine.apply #map10(%arg5, %arg6)
              call @S0(%1, %arg5, %3, %31) : (memref<1000x1200xf64>, index, memref<500xf64>, index) -> ()
            }
          }
          affine.for %arg5 = max #map24(%arg2, %arg3, %arg4) to #map25(%arg3) {
            affine.for %arg6 = #map22(%arg3) to min #map26(%arg2, %arg3, %arg5) {
              call @S2(%0, %arg5, %c0, %2) : (memref<1000x1200xf64>, index, index, memref<1000x1200xf64>) -> ()
              affine.for %arg7 = #map27(%arg5) to min #map28(%arg4, %arg5) {
                %31 = affine.apply #map29(%arg5, %arg7)
                call @S3(%2, %arg5, %31, %1, %0) : (memref<1000x1200xf64>, index, index, memref<1000x1200xf64>, memref<1000x1200xf64>) -> ()
                %32 = affine.apply #map10(%arg5, %arg7)
                call @S1(%1, %arg5, %32, %2) : (memref<1000x1200xf64>, index, index, memref<1000x1200xf64>) -> ()
                %33 = affine.apply #map10(%arg5, %arg7)
                call @S2(%0, %arg5, %33, %2) : (memref<1000x1200xf64>, index, index, memref<1000x1200xf64>) -> ()
              }
            }
            affine.if #set7(%arg2, %arg3, %arg5) {
              affine.for %arg6 = #map27(%arg5) to min #map28(%arg4, %arg5) {
                %31 = affine.apply #map29(%arg5, %arg6)
                call @S3(%2, %arg5, %31, %1, %0) : (memref<1000x1200xf64>, index, index, memref<1000x1200xf64>, memref<1000x1200xf64>) -> ()
              }
            }
          }
          affine.if #set8(%arg2, %arg4) {
            affine.for %arg5 = max #map30(%arg2, %arg3) to #map31(%arg2) {
              affine.for %arg6 = #map22(%arg3) to min #map26(%arg2, %arg3, %arg5) {
                affine.for %arg7 = #map31(%arg2) to min #map32(%arg2, %arg5) {
                  affine.if #set3(%arg2) {
                    %31 = affine.apply #map29(%arg5, %arg7)
                    call @S3(%2, %arg5, %31, %1, %0) : (memref<1000x1200xf64>, index, index, memref<1000x1200xf64>, memref<1000x1200xf64>) -> ()
                  }
                  affine.if #set3(%arg2) {
                    %31 = affine.apply #map10(%arg5, %arg7)
                    call @S1(%1, %arg5, %31, %2) : (memref<1000x1200xf64>, index, index, memref<1000x1200xf64>) -> ()
                  }
                  affine.if #set3(%arg2) {
                    %31 = affine.apply #map10(%arg5, %arg7)
                    call @S2(%0, %arg5, %31, %2) : (memref<1000x1200xf64>, index, index, memref<1000x1200xf64>) -> ()
                  }
                }
              }
              affine.if #set7(%arg2, %arg3, %arg5) {
                affine.for %arg6 = #map31(%arg2) to min #map32(%arg2, %arg5) {
                  affine.if #set3(%arg2) {
                    %31 = affine.apply #map29(%arg5, %arg6)
                    call @S3(%2, %arg5, %31, %1, %0) : (memref<1000x1200xf64>, index, index, memref<1000x1200xf64>, memref<1000x1200xf64>) -> ()
                  }
                }
              }
            }
          }
          affine.for %arg5 = max #map33(%arg2, %arg3, %arg4) to min #map34(%arg2, %arg3, %arg4) {
            affine.if #set9(%arg2, %arg3, %arg5) {
              call @S2(%0, %arg5, %c0, %2) : (memref<1000x1200xf64>, index, index, memref<1000x1200xf64>) -> ()
              %31 = affine.apply #map35(%arg2, %arg3, %arg5)
              call @S0(%1, %arg5, %3, %31) : (memref<1000x1200xf64>, index, memref<500xf64>, index) -> ()
              affine.for %arg6 = #map27(%arg5) to min #map28(%arg4, %arg5) {
                %32 = affine.apply #map10(%arg5, %arg6)
                call @S1(%1, %arg5, %32, %2) : (memref<1000x1200xf64>, index, index, memref<1000x1200xf64>) -> ()
                %33 = affine.apply #map10(%arg5, %arg6)
                call @S2(%0, %arg5, %33, %2) : (memref<1000x1200xf64>, index, index, memref<1000x1200xf64>) -> ()
              }
            }
            affine.if #set5(%arg2, %arg3, %arg4) {
              affine.if #set6(%arg2) {
                call @S0(%1, %arg5, %3, %c0) : (memref<1000x1200xf64>, index, memref<500xf64>, index) -> ()
              }
              affine.for %arg6 = #map27(%arg5) to min #map36(%arg2, %arg5) {
                affine.if #set6(%arg2) {
                  %31 = affine.apply #map10(%arg5, %arg6)
                  call @S1(%1, %arg5, %31, %2) : (memref<1000x1200xf64>, index, index, memref<1000x1200xf64>) -> ()
                }
              }
            }
            affine.for %arg6 = max #map37(%arg2, %arg3, %arg5) to min #map38(%arg2, %arg3, %arg5) {
              call @S2(%0, %arg5, %c0, %2) : (memref<1000x1200xf64>, index, index, memref<1000x1200xf64>) -> ()
              %31 = affine.apply #map10(%arg5, %arg6)
              call @S0(%1, %arg5, %3, %31) : (memref<1000x1200xf64>, index, memref<500xf64>, index) -> ()
              affine.for %arg7 = #map27(%arg5) to min #map28(%arg4, %arg5) {
                %32 = affine.apply #map29(%arg5, %arg7)
                call @S3(%2, %arg5, %32, %1, %0) : (memref<1000x1200xf64>, index, index, memref<1000x1200xf64>, memref<1000x1200xf64>) -> ()
                %33 = affine.apply #map10(%arg5, %arg7)
                call @S1(%1, %arg5, %33, %2) : (memref<1000x1200xf64>, index, index, memref<1000x1200xf64>) -> ()
                %34 = affine.apply #map10(%arg5, %arg7)
                call @S2(%0, %arg5, %34, %2) : (memref<1000x1200xf64>, index, index, memref<1000x1200xf64>) -> ()
              }
            }
            affine.for %arg6 = #map39(%arg5) to min #map40(%arg2, %arg3, %arg5) {
              %31 = affine.apply #map10(%arg5, %arg6)
              call @S0(%1, %arg5, %3, %31) : (memref<1000x1200xf64>, index, memref<500xf64>, index) -> ()
            }
            affine.for %arg6 = #map41(%arg5) to min #map42(%arg2, %arg3, %arg5) {
              call @S2(%0, %arg5, %c0, %2) : (memref<1000x1200xf64>, index, index, memref<1000x1200xf64>) -> ()
              affine.for %arg7 = #map27(%arg5) to min #map28(%arg4, %arg5) {
                %31 = affine.apply #map29(%arg5, %arg7)
                call @S3(%2, %arg5, %31, %1, %0) : (memref<1000x1200xf64>, index, index, memref<1000x1200xf64>, memref<1000x1200xf64>) -> ()
                %32 = affine.apply #map10(%arg5, %arg7)
                call @S1(%1, %arg5, %32, %2) : (memref<1000x1200xf64>, index, index, memref<1000x1200xf64>) -> ()
                %33 = affine.apply #map10(%arg5, %arg7)
                call @S2(%0, %arg5, %33, %2) : (memref<1000x1200xf64>, index, index, memref<1000x1200xf64>) -> ()
              }
            }
            affine.if #set10(%arg2, %arg3, %arg5) {
              affine.for %arg6 = #map27(%arg5) to min #map28(%arg4, %arg5) {
                %31 = affine.apply #map29(%arg5, %arg6)
                call @S3(%2, %arg5, %31, %1, %0) : (memref<1000x1200xf64>, index, index, memref<1000x1200xf64>, memref<1000x1200xf64>) -> ()
              }
            }
          }
          affine.if #set11(%arg2, %arg3, %arg4) {
            %31 = affine.apply #map43(%arg2, %arg3)[%c1200]
            call @S2(%0, %31, %c0, %2) : (memref<1000x1200xf64>, index, index, memref<1000x1200xf64>) -> ()
            %32 = affine.apply #map43(%arg2, %arg3)[%c1200]
            call @S0(%1, %32, %3, %c1199) : (memref<1000x1200xf64>, index, memref<500xf64>, index) -> ()
            affine.for %arg5 = #map44(%arg2, %arg3) to min #map45(%arg2, %arg3, %arg4) {
              %33 = affine.apply #map43(%arg2, %arg3)[%c1200]
              %34 = affine.apply #map46(%arg2, %arg3, %arg5)[%c1200]
              call @S1(%1, %33, %34, %2) : (memref<1000x1200xf64>, index, index, memref<1000x1200xf64>) -> ()
              %35 = affine.apply #map43(%arg2, %arg3)[%c1200]
              %36 = affine.apply #map46(%arg2, %arg3, %arg5)[%c1200]
              call @S2(%0, %35, %36, %2) : (memref<1000x1200xf64>, index, index, memref<1000x1200xf64>) -> ()
            }
            affine.for %arg5 = #map47(%arg2, %arg3) to min #map48(%arg2, %arg3) {
              %33 = affine.apply #map43(%arg2, %arg3)[%c1200]
              %34 = affine.apply #map46(%arg2, %arg3, %arg5)[%c1200]
              call @S0(%1, %33, %3, %34) : (memref<1000x1200xf64>, index, memref<500xf64>, index) -> ()
            }
          }
          affine.if #set12(%arg2, %arg3, %arg4) {
            affine.if #set3(%arg2) {
              %31 = affine.apply #map49(%arg2)
              call @S2(%0, %31, %c0, %2) : (memref<1000x1200xf64>, index, index, memref<1000x1200xf64>) -> ()
            }
            affine.if #set3(%arg2) {
              %31 = affine.apply #map49(%arg2)
              %32 = affine.apply #map50(%arg2, %arg3)
              call @S0(%1, %31, %3, %32) : (memref<1000x1200xf64>, index, memref<500xf64>, index) -> ()
            }
            affine.for %arg5 = #map51(%arg2) to #map52(%arg2) {
              affine.if #set3(%arg2) {
                %31 = affine.apply #map49(%arg2)
                %32 = affine.apply #map53(%arg2, %arg5)
                call @S1(%1, %31, %32, %2) : (memref<1000x1200xf64>, index, index, memref<1000x1200xf64>) -> ()
              }
              affine.if #set3(%arg2) {
                %31 = affine.apply #map49(%arg2)
                %32 = affine.apply #map53(%arg2, %arg5)
                call @S2(%0, %31, %32, %2) : (memref<1000x1200xf64>, index, index, memref<1000x1200xf64>) -> ()
              }
            }
          }
          affine.for %arg5 = #map44(%arg2, %arg3) to min #map54(%arg2, %arg3, %arg4) {
            affine.for %arg6 = #map55(%arg2, %arg3, %arg5) to min #map28(%arg3, %arg5) {
              %31 = affine.apply #map10(%arg5, %arg6)
              call @S0(%1, %arg5, %3, %31) : (memref<1000x1200xf64>, index, memref<500xf64>, index) -> ()
            }
          }
          affine.if #set13(%arg2, %arg3, %arg4) {
            affine.for %arg5 = max #map56(%arg2, %arg3, %arg4) to min #map57(%arg2, %arg3, %arg4) {
              %31 = affine.apply #map58(%arg4)
              call @S2(%0, %31, %c0, %2) : (memref<1000x1200xf64>, index, index, memref<1000x1200xf64>) -> ()
              %32 = affine.apply #map58(%arg4)
              %33 = affine.apply #map59(%arg4, %arg5)
              call @S0(%1, %32, %3, %33) : (memref<1000x1200xf64>, index, memref<500xf64>, index) -> ()
            }
            affine.if #set14(%arg2, %arg4) {
              affine.for %arg5 = #map60(%arg2) to min #map61(%arg2, %arg3) {
                affine.if #set3(%arg2) {
                  %31 = affine.apply #map7(%arg2)
                  %32 = affine.apply #map12(%arg2, %arg5)
                  call @S0(%1, %31, %3, %32) : (memref<1000x1200xf64>, index, memref<500xf64>, index) -> ()
                }
              }
            }
            affine.if #set14(%arg2, %arg4) {
              affine.for %arg5 = #map62(%arg2) to min #map63(%arg2, %arg3) {
                affine.if #set3(%arg2) {
                  %31 = affine.apply #map7(%arg2)
                  call @S2(%0, %31, %c0, %2) : (memref<1000x1200xf64>, index, index, memref<1000x1200xf64>) -> ()
                }
              }
            }
          }
          affine.if #set15(%arg2, %arg3, %arg4) {
            affine.if #set6(%arg2) {
              %31 = affine.apply #map49(%arg2)
              call @S0(%1, %31, %3, %c0) : (memref<1000x1200xf64>, index, memref<500xf64>, index) -> ()
            }
          }
          affine.if #set16(%arg2, %arg3, %arg4) {
            affine.if #set6(%arg2) {
              %31 = affine.apply #map49(%arg2)
              %32 = affine.apply #map50(%arg2, %arg3)
              call @S0(%1, %31, %3, %32) : (memref<1000x1200xf64>, index, memref<500xf64>, index) -> ()
            }
          }
          affine.for %arg5 = #map64(%arg2, %arg3) to min #map65(%arg2, %arg3, %arg4) {
            call @S2(%0, %arg5, %c0, %2) : (memref<1000x1200xf64>, index, index, memref<1000x1200xf64>) -> ()
            affine.for %arg6 = #map27(%arg5) to min #map28(%arg4, %arg5) {
              %31 = affine.apply #map10(%arg5, %arg6)
              call @S1(%1, %arg5, %31, %2) : (memref<1000x1200xf64>, index, index, memref<1000x1200xf64>) -> ()
              %32 = affine.apply #map10(%arg5, %arg6)
              call @S2(%0, %arg5, %32, %2) : (memref<1000x1200xf64>, index, index, memref<1000x1200xf64>) -> ()
            }
            affine.for %arg6 = #map66(%arg2, %arg3, %arg5) to min #map67(%arg3, %arg5) {
              call @S2(%0, %arg5, %c0, %2) : (memref<1000x1200xf64>, index, index, memref<1000x1200xf64>) -> ()
              affine.for %arg7 = #map27(%arg5) to min #map28(%arg4, %arg5) {
                %31 = affine.apply #map29(%arg5, %arg7)
                call @S3(%2, %arg5, %31, %1, %0) : (memref<1000x1200xf64>, index, index, memref<1000x1200xf64>, memref<1000x1200xf64>) -> ()
                %32 = affine.apply #map10(%arg5, %arg7)
                call @S1(%1, %arg5, %32, %2) : (memref<1000x1200xf64>, index, index, memref<1000x1200xf64>) -> ()
                %33 = affine.apply #map10(%arg5, %arg7)
                call @S2(%0, %arg5, %33, %2) : (memref<1000x1200xf64>, index, index, memref<1000x1200xf64>) -> ()
              }
            }
          }
          affine.if #set17(%arg2, %arg3, %arg4) {
            %31 = affine.apply #map43(%arg2, %arg3)[%c1200]
            call @S2(%0, %31, %c0, %2) : (memref<1000x1200xf64>, index, index, memref<1000x1200xf64>) -> ()
            affine.for %arg5 = #map44(%arg2, %arg3) to min #map45(%arg2, %arg3, %arg4) {
              %32 = affine.apply #map43(%arg2, %arg3)[%c1200]
              %33 = affine.apply #map46(%arg2, %arg3, %arg5)[%c1200]
              call @S1(%1, %32, %33, %2) : (memref<1000x1200xf64>, index, index, memref<1000x1200xf64>) -> ()
              %34 = affine.apply #map43(%arg2, %arg3)[%c1200]
              %35 = affine.apply #map46(%arg2, %arg3, %arg5)[%c1200]
              call @S2(%0, %34, %35, %2) : (memref<1000x1200xf64>, index, index, memref<1000x1200xf64>) -> ()
            }
          }
          affine.if #set18(%arg2, %arg3, %arg4) {
            affine.if #set3(%arg2) {
              %31 = affine.apply #map49(%arg2)
              call @S2(%0, %31, %c0, %2) : (memref<1000x1200xf64>, index, index, memref<1000x1200xf64>) -> ()
            }
            affine.for %arg5 = #map51(%arg2) to min #map68(%arg2) {
              affine.if #set3(%arg2) {
                %31 = affine.apply #map49(%arg2)
                %32 = affine.apply #map53(%arg2, %arg5)
                call @S1(%1, %31, %32, %2) : (memref<1000x1200xf64>, index, index, memref<1000x1200xf64>) -> ()
              }
              affine.if #set3(%arg2) {
                %31 = affine.apply #map49(%arg2)
                %32 = affine.apply #map53(%arg2, %arg5)
                call @S2(%0, %31, %32, %2) : (memref<1000x1200xf64>, index, index, memref<1000x1200xf64>) -> ()
              }
            }
          }
          affine.if #set19(%arg2, %arg3, %arg4) {
            affine.if #set6(%arg2) {
              %31 = affine.apply #map49(%arg2)
              call @S2(%0, %31, %c0, %2) : (memref<1000x1200xf64>, index, index, memref<1000x1200xf64>) -> ()
            }
          }
        }
        affine.if #set20(%arg2) {
          affine.if #set3(%arg2) {
            affine.for %arg4 = max #map69(%arg2, %arg3) to 500 {
              affine.for %arg5 = #map22(%arg3) to min #map26(%arg2, %arg3, %arg4) {
                affine.for %arg6 = #map31(%arg2) to min #map32(%arg2, %arg4) {
                  %31 = affine.apply #map29(%arg4, %arg6)
                  call @S3(%2, %arg4, %31, %1, %0) : (memref<1000x1200xf64>, index, index, memref<1000x1200xf64>, memref<1000x1200xf64>) -> ()
                  %32 = affine.apply #map10(%arg4, %arg6)
                  call @S1(%1, %arg4, %32, %2) : (memref<1000x1200xf64>, index, index, memref<1000x1200xf64>) -> ()
                  %33 = affine.apply #map10(%arg4, %arg6)
                  call @S2(%0, %arg4, %33, %2) : (memref<1000x1200xf64>, index, index, memref<1000x1200xf64>) -> ()
                }
              }
              affine.if #set7(%arg2, %arg3, %arg4) {
                affine.for %arg5 = #map31(%arg2) to min #map32(%arg2, %arg4) {
                  %31 = affine.apply #map29(%arg4, %arg5)
                  call @S3(%2, %arg4, %31, %1, %0) : (memref<1000x1200xf64>, index, index, memref<1000x1200xf64>, memref<1000x1200xf64>) -> ()
                }
              }
            }
          }
        }
        affine.for %arg4 = #map70(%arg2) to min #map71(%arg2, %arg3) {
          affine.if #set21(%arg2, %arg3, %arg4) {
            affine.for %arg5 = #map22(%arg4) to min #map72(%arg2, %arg4) {
              affine.if #set6(%arg2) {
                %31 = affine.apply #map15(%arg2)
                %32 = affine.apply #map18(%arg2, %arg5)
                call @S1(%1, %31, %32, %2) : (memref<1000x1200xf64>, index, index, memref<1000x1200xf64>) -> ()
              }
            }
            affine.for %arg5 = #map22(%arg4) to min #map72(%arg2, %arg4) {
              affine.if #set6(%arg2) {
                %31 = affine.apply #map15(%arg2)
                %32 = affine.apply #map19(%arg2, %arg5)
                call @S3(%2, %31, %32, %1, %0) : (memref<1000x1200xf64>, index, index, memref<1000x1200xf64>, memref<1000x1200xf64>) -> ()
              }
            }
          }
          affine.for %arg5 = max #map73(%arg2, %arg3, %arg4) to min #map74(%arg2, %arg3) {
            affine.if #set9(%arg2, %arg3, %arg5) {
              affine.for %arg6 = #map22(%arg4) to min #map28(%arg4, %arg5) {
                %31 = affine.apply #map10(%arg5, %arg6)
                call @S1(%1, %arg5, %31, %2) : (memref<1000x1200xf64>, index, index, memref<1000x1200xf64>) -> ()
                %32 = affine.apply #map10(%arg5, %arg6)
                call @S2(%0, %arg5, %32, %2) : (memref<1000x1200xf64>, index, index, memref<1000x1200xf64>) -> ()
              }
            }
            affine.if #set22(%arg2, %arg3) {
              affine.for %arg6 = #map22(%arg4) to min #map28(%arg4, %arg5) {
                affine.if #set6(%arg2) {
                  %31 = affine.apply #map10(%arg5, %arg6)
                  call @S1(%1, %arg5, %31, %2) : (memref<1000x1200xf64>, index, index, memref<1000x1200xf64>) -> ()
                }
              }
            }
            affine.for %arg6 = max #map37(%arg2, %arg3, %arg5) to min #map42(%arg2, %arg3, %arg5) {
              affine.for %arg7 = #map22(%arg4) to min #map28(%arg4, %arg5) {
                %31 = affine.apply #map29(%arg5, %arg7)
                call @S3(%2, %arg5, %31, %1, %0) : (memref<1000x1200xf64>, index, index, memref<1000x1200xf64>, memref<1000x1200xf64>) -> ()
                %32 = affine.apply #map10(%arg5, %arg7)
                call @S1(%1, %arg5, %32, %2) : (memref<1000x1200xf64>, index, index, memref<1000x1200xf64>) -> ()
                %33 = affine.apply #map10(%arg5, %arg7)
                call @S2(%0, %arg5, %33, %2) : (memref<1000x1200xf64>, index, index, memref<1000x1200xf64>) -> ()
              }
            }
            affine.if #set10(%arg2, %arg3, %arg5) {
              affine.for %arg6 = #map22(%arg4) to min #map28(%arg4, %arg5) {
                %31 = affine.apply #map29(%arg5, %arg6)
                call @S3(%2, %arg5, %31, %1, %0) : (memref<1000x1200xf64>, index, index, memref<1000x1200xf64>, memref<1000x1200xf64>) -> ()
              }
            }
          }
          affine.if #set23(%arg2, %arg3) {
            affine.for %arg5 = #map22(%arg4) to min #map75(%arg2, %arg4) {
              %31 = affine.apply #map49(%arg2)
              %32 = affine.apply #map53(%arg2, %arg5)
              call @S1(%1, %31, %32, %2) : (memref<1000x1200xf64>, index, index, memref<1000x1200xf64>) -> ()
              %33 = affine.apply #map49(%arg2)
              %34 = affine.apply #map53(%arg2, %arg5)
              call @S2(%0, %33, %34, %2) : (memref<1000x1200xf64>, index, index, memref<1000x1200xf64>) -> ()
            }
          }
          affine.if #set24(%arg2, %arg3) {
            affine.for %arg5 = #map22(%arg4) to min #map45(%arg2, %arg3, %arg4) {
              %31 = affine.apply #map43(%arg2, %arg3)[%c1200]
              %32 = affine.apply #map46(%arg2, %arg3, %arg5)[%c1200]
              call @S1(%1, %31, %32, %2) : (memref<1000x1200xf64>, index, index, memref<1000x1200xf64>) -> ()
              %33 = affine.apply #map43(%arg2, %arg3)[%c1200]
              %34 = affine.apply #map46(%arg2, %arg3, %arg5)[%c1200]
              call @S2(%0, %33, %34, %2) : (memref<1000x1200xf64>, index, index, memref<1000x1200xf64>) -> ()
            }
          }
          affine.if #set25(%arg2, %arg3) {
            affine.for %arg5 = #map22(%arg4) to min #map75(%arg2, %arg4) {
              affine.if #set6(%arg2) {
                %31 = affine.apply #map49(%arg2)
                %32 = affine.apply #map53(%arg2, %arg5)
                call @S1(%1, %31, %32, %2) : (memref<1000x1200xf64>, index, index, memref<1000x1200xf64>) -> ()
              }
            }
          }
        }
        affine.if #set23(%arg2, %arg3) {
          affine.if #set26(%arg2) {
            %31 = affine.apply #map49(%arg2)
            call @S1(%1, %31, %c999, %2) : (memref<1000x1200xf64>, index, index, memref<1000x1200xf64>) -> ()
            %32 = affine.apply #map49(%arg2)
            call @S2(%0, %32, %c999, %2) : (memref<1000x1200xf64>, index, index, memref<1000x1200xf64>) -> ()
          }
        }
        affine.if #set24(%arg2, %arg3) {
          affine.if #set27() {
            %31 = affine.apply #map43(%arg2, %arg3)[%c1200]
            call @S1(%1, %31, %c999, %2) : (memref<1000x1200xf64>, index, index, memref<1000x1200xf64>) -> ()
            %32 = affine.apply #map43(%arg2, %arg3)[%c1200]
            call @S2(%0, %32, %c999, %2) : (memref<1000x1200xf64>, index, index, memref<1000x1200xf64>) -> ()
          }
        }
        affine.if #set25(%arg2, %arg3) {
          affine.if #set26(%arg2) {
            affine.if #set6(%arg2) {
              %31 = affine.apply #map49(%arg2)
              call @S1(%1, %31, %c999, %2) : (memref<1000x1200xf64>, index, index, memref<1000x1200xf64>) -> ()
            }
          }
        }
      }
      affine.if #set28(%arg2) {
        affine.if #set29() {
          call @S2(%0, %c0, %c0, %2) : (memref<1000x1200xf64>, index, index, memref<1000x1200xf64>) -> ()
          call @S0(%1, %c0, %3, %c1199) : (memref<1000x1200xf64>, index, memref<500xf64>, index) -> ()
          affine.for %arg3 = 1 to 32 {
            call @S1(%1, %c0, %arg3, %2) : (memref<1000x1200xf64>, index, index, memref<1000x1200xf64>) -> ()
            call @S2(%0, %c0, %arg3, %2) : (memref<1000x1200xf64>, index, index, memref<1000x1200xf64>) -> ()
          }
          affine.for %arg3 = 1200 to 1000 {
            call @S0(%1, %c0, %3, %arg3) : (memref<1000x1200xf64>, index, memref<500xf64>, index) -> ()
          }
          affine.for %arg3 = 1 to -199 {
            affine.for %arg4 = #map76(%arg3) to min #map77(%arg3) {
              %31 = affine.apply #map10(%arg3, %arg4)
              call @S0(%1, %arg3, %3, %31) : (memref<1000x1200xf64>, index, memref<500xf64>, index) -> ()
            }
          }
          affine.for %arg3 = 1 to 32 {
            affine.for %arg4 = #map22(%arg3) to min #map78(%arg3) {
              call @S1(%1, %c0, %arg4, %2) : (memref<1000x1200xf64>, index, index, memref<1000x1200xf64>) -> ()
              call @S2(%0, %c0, %arg4, %2) : (memref<1000x1200xf64>, index, index, memref<1000x1200xf64>) -> ()
            }
          }
        }
      }
      affine.if #set30(%arg2) {
        %31 = affine.apply #map79(%arg2)
        affine.if #set31(%31) {
          affine.for %arg3 = max #map80(%arg2) to 500 {
            affine.for %arg4 = 1728 to min #map81(%arg2, %arg3) {
              %32 = affine.apply #map10(%arg3, %arg4)
              call @S0(%1, %arg3, %3, %32) : (memref<1000x1200xf64>, index, memref<500xf64>, index) -> ()
            }
          }
        }
      }
      affine.for %arg3 = #map82(%arg2) to min #map83(%arg2) {
        affine.for %arg4 = max #map84(%arg2) to min #map14(%arg2) {
          affine.for %arg5 = max #map20(%arg2, %arg3, %arg4) to min #map85(%arg2, %arg3, %arg4) {
            affine.for %arg6 = max #map86(%arg2, %arg3, %arg5) to min #map40(%arg2, %arg3, %arg5) {
              %31 = affine.apply #map10(%arg5, %arg6)
              call @S0(%1, %arg5, %3, %31) : (memref<1000x1200xf64>, index, memref<500xf64>, index) -> ()
            }
          }
        }
      }
      affine.if #set32(%arg2) {
        affine.for %arg3 = #map79(%arg2) to 47 {
          affine.for %arg4 = max #map87(%arg2) to 500 {
            affine.for %arg5 = 1504 to min #map88(%arg2, %arg4) {
              affine.if #set33(%arg3, %arg4) {
                call @S2(%0, %arg4, %c0, %2) : (memref<1000x1200xf64>, index, index, memref<1000x1200xf64>) -> ()
              }
              affine.for %arg6 = max #map89(%arg3, %arg4) to min #map28(%arg3, %arg4) {
                %31 = affine.apply #map29(%arg4, %arg6)
                call @S3(%2, %arg4, %31, %1, %0) : (memref<1000x1200xf64>, index, index, memref<1000x1200xf64>, memref<1000x1200xf64>) -> ()
                %32 = affine.apply #map10(%arg4, %arg6)
                call @S1(%1, %arg4, %32, %2) : (memref<1000x1200xf64>, index, index, memref<1000x1200xf64>) -> ()
                %33 = affine.apply #map10(%arg4, %arg6)
                call @S2(%0, %arg4, %33, %2) : (memref<1000x1200xf64>, index, index, memref<1000x1200xf64>) -> ()
              }
            }
            affine.if #set34(%arg2, %arg4) {
              affine.for %arg5 = max #map89(%arg3, %arg4) to min #map28(%arg3, %arg4) {
                %31 = affine.apply #map29(%arg4, %arg5)
                call @S3(%2, %arg4, %31, %1, %0) : (memref<1000x1200xf64>, index, index, memref<1000x1200xf64>, memref<1000x1200xf64>) -> ()
              }
            }
          }
        }
      }
      affine.for %arg3 = #map90(%arg2) to min #map91(%arg2) {
        affine.if #set2(%arg2, %arg3) {
          affine.if #set3(%arg2) {
            affine.if #set4(%arg2) {
              %31 = affine.apply #map7(%arg2)
              call @S2(%0, %31, %c0, %2) : (memref<1000x1200xf64>, index, index, memref<1000x1200xf64>) -> ()
            }
          }
        }
        affine.for %arg4 = max #map13(%arg2, %arg3) to min #map71(%arg2, %arg3) {
          affine.for %arg5 = max #map92(%arg2, %arg3, %arg4) to min #map65(%arg2, %arg3, %arg4) {
            affine.if #set35(%arg2, %arg5) {
              affine.if #set33(%arg4, %arg5) {
                call @S2(%0, %arg5, %c0, %2) : (memref<1000x1200xf64>, index, index, memref<1000x1200xf64>) -> ()
              }
              affine.for %arg6 = max #map89(%arg4, %arg5) to min #map28(%arg4, %arg5) {
                %31 = affine.apply #map10(%arg5, %arg6)
                call @S1(%1, %arg5, %31, %2) : (memref<1000x1200xf64>, index, index, memref<1000x1200xf64>) -> ()
                %32 = affine.apply #map10(%arg5, %arg6)
                call @S2(%0, %arg5, %32, %2) : (memref<1000x1200xf64>, index, index, memref<1000x1200xf64>) -> ()
              }
            }
            affine.for %arg6 = max #map93(%arg2, %arg3, %arg5) to min #map42(%arg2, %arg3, %arg5) {
              affine.if #set33(%arg4, %arg5) {
                call @S2(%0, %arg5, %c0, %2) : (memref<1000x1200xf64>, index, index, memref<1000x1200xf64>) -> ()
              }
              affine.for %arg7 = max #map89(%arg4, %arg5) to min #map28(%arg4, %arg5) {
                %31 = affine.apply #map29(%arg5, %arg7)
                call @S3(%2, %arg5, %31, %1, %0) : (memref<1000x1200xf64>, index, index, memref<1000x1200xf64>, memref<1000x1200xf64>) -> ()
                %32 = affine.apply #map10(%arg5, %arg7)
                call @S1(%1, %arg5, %32, %2) : (memref<1000x1200xf64>, index, index, memref<1000x1200xf64>) -> ()
                %33 = affine.apply #map10(%arg5, %arg7)
                call @S2(%0, %arg5, %33, %2) : (memref<1000x1200xf64>, index, index, memref<1000x1200xf64>) -> ()
              }
            }
            affine.if #set10(%arg2, %arg3, %arg5) {
              affine.for %arg6 = max #map89(%arg4, %arg5) to min #map28(%arg4, %arg5) {
                %31 = affine.apply #map29(%arg5, %arg6)
                call @S3(%2, %arg5, %31, %1, %0) : (memref<1000x1200xf64>, index, index, memref<1000x1200xf64>, memref<1000x1200xf64>) -> ()
              }
            }
          }
          affine.if #set36(%arg2, %arg3, %arg4) {
            affine.if #set8(%arg2, %arg4) {
              affine.if #set3(%arg2) {
                %31 = affine.apply #map49(%arg2)
                call @S2(%0, %31, %c0, %2) : (memref<1000x1200xf64>, index, index, memref<1000x1200xf64>) -> ()
              }
            }
            affine.for %arg5 = max #map94(%arg2, %arg4) to min #map75(%arg2, %arg4) {
              %31 = affine.apply #map49(%arg2)
              %32 = affine.apply #map53(%arg2, %arg5)
              call @S1(%1, %31, %32, %2) : (memref<1000x1200xf64>, index, index, memref<1000x1200xf64>) -> ()
              %33 = affine.apply #map49(%arg2)
              %34 = affine.apply #map53(%arg2, %arg5)
              call @S2(%0, %33, %34, %2) : (memref<1000x1200xf64>, index, index, memref<1000x1200xf64>) -> ()
            }
          }
          affine.if #set37(%arg2, %arg3, %arg4) {
            affine.if #set38(%arg2, %arg3, %arg4) {
              %31 = affine.apply #map43(%arg2, %arg3)[%c1200]
              call @S2(%0, %31, %c0, %2) : (memref<1000x1200xf64>, index, index, memref<1000x1200xf64>) -> ()
            }
            affine.for %arg5 = max #map95(%arg2, %arg3, %arg4) to min #map45(%arg2, %arg3, %arg4) {
              %31 = affine.apply #map43(%arg2, %arg3)[%c1200]
              %32 = affine.apply #map46(%arg2, %arg3, %arg5)[%c1200]
              call @S1(%1, %31, %32, %2) : (memref<1000x1200xf64>, index, index, memref<1000x1200xf64>) -> ()
              %33 = affine.apply #map43(%arg2, %arg3)[%c1200]
              %34 = affine.apply #map46(%arg2, %arg3, %arg5)[%c1200]
              call @S2(%0, %33, %34, %2) : (memref<1000x1200xf64>, index, index, memref<1000x1200xf64>) -> ()
            }
          }
          affine.if #set39(%arg2, %arg3, %arg4) {
            affine.for %arg5 = max #map56(%arg2, %arg3, %arg4) to min #map96(%arg2, %arg3, %arg4) {
              %31 = affine.apply #map58(%arg4)
              call @S2(%0, %31, %c0, %2) : (memref<1000x1200xf64>, index, index, memref<1000x1200xf64>) -> ()
            }
          }
        }
        affine.if #set40(%arg2, %arg3) {
          affine.if #set26(%arg2) {
            %31 = affine.apply #map49(%arg2)
            call @S1(%1, %31, %c999, %2) : (memref<1000x1200xf64>, index, index, memref<1000x1200xf64>) -> ()
            %32 = affine.apply #map49(%arg2)
            call @S2(%0, %32, %c999, %2) : (memref<1000x1200xf64>, index, index, memref<1000x1200xf64>) -> ()
          }
        }
        affine.if #set24(%arg2, %arg3) {
          affine.if #set27() {
            %31 = affine.apply #map43(%arg2, %arg3)[%c1200]
            call @S1(%1, %31, %c999, %2) : (memref<1000x1200xf64>, index, index, memref<1000x1200xf64>) -> ()
            %32 = affine.apply #map43(%arg2, %arg3)[%c1200]
            call @S2(%0, %32, %c999, %2) : (memref<1000x1200xf64>, index, index, memref<1000x1200xf64>) -> ()
          }
        }
      }
      affine.if #set41(%arg2) {
        affine.if #set29() {
          affine.for %arg3 = 0 to 32 {
            affine.if #set42(%arg3) {
              call @S2(%0, %c0, %c0, %2) : (memref<1000x1200xf64>, index, index, memref<1000x1200xf64>) -> ()
            }
            affine.for %arg4 = max #map97(%arg3) to min #map78(%arg3) {
              call @S1(%1, %c0, %arg4, %2) : (memref<1000x1200xf64>, index, index, memref<1000x1200xf64>) -> ()
              call @S2(%0, %c0, %arg4, %2) : (memref<1000x1200xf64>, index, index, memref<1000x1200xf64>) -> ()
            }
          }
        }
      }
    }
    call @print_array(%c1000_i32, %c1200_i32, %0, %1, %2) : (i32, i32, memref<1000x1200xf64>, memref<1000x1200xf64>, memref<1000x1200xf64>) -> ()
    return %c0_i32 : i32
  ^bb5(%12: i32):  // 2 preds: ^bb3, ^bb6
    %13 = cmpi "slt", %12, %c1200_i32 : i32
    %14 = index_cast %12 : i32 to index
    cond_br %13, ^bb6, ^bb7
  ^bb6:  // pred: ^bb5
    %15 = sitofp %9 : i32 to f64
    %16 = addi %12, %c1_i32 : i32
    %17 = sitofp %16 : i32 to f64
    %18 = mulf %15, %17 : f64
    %19 = sitofp %c1000_i32 : i32 to f64
    %20 = divf %18, %19 : f64
    store %20, %0[%11, %14] : memref<1000x1200xf64>
    %21 = addi %12, %c2_i32 : i32
    %22 = sitofp %21 : i32 to f64
    %23 = mulf %15, %22 : f64
    %24 = sitofp %c1200_i32 : i32 to f64
    %25 = divf %23, %24 : f64
    store %25, %1[%11, %14] : memref<1000x1200xf64>
    %26 = addi %12, %c3_i32 : i32
    %27 = sitofp %26 : i32 to f64
    %28 = mulf %15, %27 : f64
    %29 = divf %28, %19 : f64
    store %29, %2[%11, %14] : memref<1000x1200xf64>
    br ^bb5(%16 : i32)
  ^bb7:  // pred: ^bb5
    %30 = addi %9, %c1_i32 : i32
    br ^bb3(%30 : i32)
  }
  func private @print_array(%arg0: i32, %arg1: i32, %arg2: memref<1000x1200xf64>, %arg3: memref<1000x1200xf64>, %arg4: memref<1000x1200xf64>) {
    %c0_i32 = constant 0 : i32
    %c20_i32 = constant 20 : i32
    %c1_i32 = constant 1 : i32
    %0 = llvm.mlir.addressof @stderr : !llvm.ptr<ptr<struct<"struct._IO_FILE", (i32, ptr<i8>, ptr<i8>, ptr<i8>, ptr<i8>, ptr<i8>, ptr<i8>, ptr<i8>, ptr<i8>, ptr<i8>, ptr<i8>, ptr<i8>, ptr<struct<"struct._IO_marker", opaque>>, ptr<struct<"struct._IO_FILE">>, i32, i32, i64, i16, i8, array<1 x i8>, ptr<i8>, i64, ptr<struct<"struct._IO_codecvt", opaque>>, ptr<struct<"struct._IO_wide_data", opaque>>, ptr<struct<"struct._IO_FILE">>, ptr<i8>, i64, i32, array<20 x i8>)>>>
    %1 = llvm.load %0 : !llvm.ptr<ptr<struct<"struct._IO_FILE", (i32, ptr<i8>, ptr<i8>, ptr<i8>, ptr<i8>, ptr<i8>, ptr<i8>, ptr<i8>, ptr<i8>, ptr<i8>, ptr<i8>, ptr<i8>, ptr<struct<"struct._IO_marker", opaque>>, ptr<struct<"struct._IO_FILE">>, i32, i32, i64, i16, i8, array<1 x i8>, ptr<i8>, i64, ptr<struct<"struct._IO_codecvt", opaque>>, ptr<struct<"struct._IO_wide_data", opaque>>, ptr<struct<"struct._IO_FILE">>, ptr<i8>, i64, i32, array<20 x i8>)>>>
    %2 = llvm.mlir.addressof @str0 : !llvm.ptr<array<23 x i8>>
    %3 = llvm.mlir.constant(0 : index) : !llvm.i64
    %4 = llvm.getelementptr %2[%3, %3] : (!llvm.ptr<array<23 x i8>>, !llvm.i64, !llvm.i64) -> !llvm.ptr<i8>
    %5 = llvm.call @fprintf(%1, %4) : (!llvm.ptr<struct<"struct._IO_FILE", (i32, ptr<i8>, ptr<i8>, ptr<i8>, ptr<i8>, ptr<i8>, ptr<i8>, ptr<i8>, ptr<i8>, ptr<i8>, ptr<i8>, ptr<i8>, ptr<struct<"struct._IO_marker", opaque>>, ptr<struct<"struct._IO_FILE">>, i32, i32, i64, i16, i8, array<1 x i8>, ptr<i8>, i64, ptr<struct<"struct._IO_codecvt", opaque>>, ptr<struct<"struct._IO_wide_data", opaque>>, ptr<struct<"struct._IO_FILE">>, ptr<i8>, i64, i32, array<20 x i8>)>>, !llvm.ptr<i8>) -> !llvm.i32
    %6 = llvm.mlir.addressof @stderr : !llvm.ptr<ptr<struct<"struct._IO_FILE", (i32, ptr<i8>, ptr<i8>, ptr<i8>, ptr<i8>, ptr<i8>, ptr<i8>, ptr<i8>, ptr<i8>, ptr<i8>, ptr<i8>, ptr<i8>, ptr<struct<"struct._IO_marker", opaque>>, ptr<struct<"struct._IO_FILE">>, i32, i32, i64, i16, i8, array<1 x i8>, ptr<i8>, i64, ptr<struct<"struct._IO_codecvt", opaque>>, ptr<struct<"struct._IO_wide_data", opaque>>, ptr<struct<"struct._IO_FILE">>, ptr<i8>, i64, i32, array<20 x i8>)>>>
    %7 = llvm.load %6 : !llvm.ptr<ptr<struct<"struct._IO_FILE", (i32, ptr<i8>, ptr<i8>, ptr<i8>, ptr<i8>, ptr<i8>, ptr<i8>, ptr<i8>, ptr<i8>, ptr<i8>, ptr<i8>, ptr<i8>, ptr<struct<"struct._IO_marker", opaque>>, ptr<struct<"struct._IO_FILE">>, i32, i32, i64, i16, i8, array<1 x i8>, ptr<i8>, i64, ptr<struct<"struct._IO_codecvt", opaque>>, ptr<struct<"struct._IO_wide_data", opaque>>, ptr<struct<"struct._IO_FILE">>, ptr<i8>, i64, i32, array<20 x i8>)>>>
    %8 = llvm.mlir.addressof @str1 : !llvm.ptr<array<15 x i8>>
    %9 = llvm.getelementptr %8[%3, %3] : (!llvm.ptr<array<15 x i8>>, !llvm.i64, !llvm.i64) -> !llvm.ptr<i8>
    %10 = llvm.mlir.addressof @str2 : !llvm.ptr<array<3 x i8>>
    %11 = llvm.getelementptr %10[%3, %3] : (!llvm.ptr<array<3 x i8>>, !llvm.i64, !llvm.i64) -> !llvm.ptr<i8>
    %12 = llvm.call @fprintf(%7, %9, %11) : (!llvm.ptr<struct<"struct._IO_FILE", (i32, ptr<i8>, ptr<i8>, ptr<i8>, ptr<i8>, ptr<i8>, ptr<i8>, ptr<i8>, ptr<i8>, ptr<i8>, ptr<i8>, ptr<i8>, ptr<struct<"struct._IO_marker", opaque>>, ptr<struct<"struct._IO_FILE">>, i32, i32, i64, i16, i8, array<1 x i8>, ptr<i8>, i64, ptr<struct<"struct._IO_codecvt", opaque>>, ptr<struct<"struct._IO_wide_data", opaque>>, ptr<struct<"struct._IO_FILE">>, ptr<i8>, i64, i32, array<20 x i8>)>>, !llvm.ptr<i8>, !llvm.ptr<i8>) -> !llvm.i32
    br ^bb1(%c0_i32 : i32)
  ^bb1(%13: i32):  // 2 preds: ^bb0, ^bb5
    %14 = cmpi "slt", %13, %arg0 : i32
    %15 = index_cast %13 : i32 to index
    cond_br %14, ^bb3(%c0_i32 : i32), ^bb2
  ^bb2:  // pred: ^bb1
    %16 = llvm.mlir.addressof @stderr : !llvm.ptr<ptr<struct<"struct._IO_FILE", (i32, ptr<i8>, ptr<i8>, ptr<i8>, ptr<i8>, ptr<i8>, ptr<i8>, ptr<i8>, ptr<i8>, ptr<i8>, ptr<i8>, ptr<i8>, ptr<struct<"struct._IO_marker", opaque>>, ptr<struct<"struct._IO_FILE">>, i32, i32, i64, i16, i8, array<1 x i8>, ptr<i8>, i64, ptr<struct<"struct._IO_codecvt", opaque>>, ptr<struct<"struct._IO_wide_data", opaque>>, ptr<struct<"struct._IO_FILE">>, ptr<i8>, i64, i32, array<20 x i8>)>>>
    %17 = llvm.load %16 : !llvm.ptr<ptr<struct<"struct._IO_FILE", (i32, ptr<i8>, ptr<i8>, ptr<i8>, ptr<i8>, ptr<i8>, ptr<i8>, ptr<i8>, ptr<i8>, ptr<i8>, ptr<i8>, ptr<i8>, ptr<struct<"struct._IO_marker", opaque>>, ptr<struct<"struct._IO_FILE">>, i32, i32, i64, i16, i8, array<1 x i8>, ptr<i8>, i64, ptr<struct<"struct._IO_codecvt", opaque>>, ptr<struct<"struct._IO_wide_data", opaque>>, ptr<struct<"struct._IO_FILE">>, ptr<i8>, i64, i32, array<20 x i8>)>>>
    %18 = llvm.mlir.addressof @str5 : !llvm.ptr<array<17 x i8>>
    %19 = llvm.getelementptr %18[%3, %3] : (!llvm.ptr<array<17 x i8>>, !llvm.i64, !llvm.i64) -> !llvm.ptr<i8>
    %20 = llvm.mlir.addressof @str2 : !llvm.ptr<array<3 x i8>>
    %21 = llvm.getelementptr %20[%3, %3] : (!llvm.ptr<array<3 x i8>>, !llvm.i64, !llvm.i64) -> !llvm.ptr<i8>
    %22 = llvm.call @fprintf(%17, %19, %21) : (!llvm.ptr<struct<"struct._IO_FILE", (i32, ptr<i8>, ptr<i8>, ptr<i8>, ptr<i8>, ptr<i8>, ptr<i8>, ptr<i8>, ptr<i8>, ptr<i8>, ptr<i8>, ptr<i8>, ptr<struct<"struct._IO_marker", opaque>>, ptr<struct<"struct._IO_FILE">>, i32, i32, i64, i16, i8, array<1 x i8>, ptr<i8>, i64, ptr<struct<"struct._IO_codecvt", opaque>>, ptr<struct<"struct._IO_wide_data", opaque>>, ptr<struct<"struct._IO_FILE">>, ptr<i8>, i64, i32, array<20 x i8>)>>, !llvm.ptr<i8>, !llvm.ptr<i8>) -> !llvm.i32
    %23 = llvm.mlir.addressof @stderr : !llvm.ptr<ptr<struct<"struct._IO_FILE", (i32, ptr<i8>, ptr<i8>, ptr<i8>, ptr<i8>, ptr<i8>, ptr<i8>, ptr<i8>, ptr<i8>, ptr<i8>, ptr<i8>, ptr<i8>, ptr<struct<"struct._IO_marker", opaque>>, ptr<struct<"struct._IO_FILE">>, i32, i32, i64, i16, i8, array<1 x i8>, ptr<i8>, i64, ptr<struct<"struct._IO_codecvt", opaque>>, ptr<struct<"struct._IO_wide_data", opaque>>, ptr<struct<"struct._IO_FILE">>, ptr<i8>, i64, i32, array<20 x i8>)>>>
    %24 = llvm.load %23 : !llvm.ptr<ptr<struct<"struct._IO_FILE", (i32, ptr<i8>, ptr<i8>, ptr<i8>, ptr<i8>, ptr<i8>, ptr<i8>, ptr<i8>, ptr<i8>, ptr<i8>, ptr<i8>, ptr<i8>, ptr<struct<"struct._IO_marker", opaque>>, ptr<struct<"struct._IO_FILE">>, i32, i32, i64, i16, i8, array<1 x i8>, ptr<i8>, i64, ptr<struct<"struct._IO_codecvt", opaque>>, ptr<struct<"struct._IO_wide_data", opaque>>, ptr<struct<"struct._IO_FILE">>, ptr<i8>, i64, i32, array<20 x i8>)>>>
    %25 = llvm.mlir.addressof @str6 : !llvm.ptr<array<23 x i8>>
    %26 = llvm.getelementptr %25[%3, %3] : (!llvm.ptr<array<23 x i8>>, !llvm.i64, !llvm.i64) -> !llvm.ptr<i8>
    %27 = llvm.call @fprintf(%24, %26) : (!llvm.ptr<struct<"struct._IO_FILE", (i32, ptr<i8>, ptr<i8>, ptr<i8>, ptr<i8>, ptr<i8>, ptr<i8>, ptr<i8>, ptr<i8>, ptr<i8>, ptr<i8>, ptr<i8>, ptr<struct<"struct._IO_marker", opaque>>, ptr<struct<"struct._IO_FILE">>, i32, i32, i64, i16, i8, array<1 x i8>, ptr<i8>, i64, ptr<struct<"struct._IO_codecvt", opaque>>, ptr<struct<"struct._IO_wide_data", opaque>>, ptr<struct<"struct._IO_FILE">>, ptr<i8>, i64, i32, array<20 x i8>)>>, !llvm.ptr<i8>) -> !llvm.i32
    %28 = llvm.mlir.addressof @stderr : !llvm.ptr<ptr<struct<"struct._IO_FILE", (i32, ptr<i8>, ptr<i8>, ptr<i8>, ptr<i8>, ptr<i8>, ptr<i8>, ptr<i8>, ptr<i8>, ptr<i8>, ptr<i8>, ptr<i8>, ptr<struct<"struct._IO_marker", opaque>>, ptr<struct<"struct._IO_FILE">>, i32, i32, i64, i16, i8, array<1 x i8>, ptr<i8>, i64, ptr<struct<"struct._IO_codecvt", opaque>>, ptr<struct<"struct._IO_wide_data", opaque>>, ptr<struct<"struct._IO_FILE">>, ptr<i8>, i64, i32, array<20 x i8>)>>>
    %29 = llvm.load %28 : !llvm.ptr<ptr<struct<"struct._IO_FILE", (i32, ptr<i8>, ptr<i8>, ptr<i8>, ptr<i8>, ptr<i8>, ptr<i8>, ptr<i8>, ptr<i8>, ptr<i8>, ptr<i8>, ptr<i8>, ptr<struct<"struct._IO_marker", opaque>>, ptr<struct<"struct._IO_FILE">>, i32, i32, i64, i16, i8, array<1 x i8>, ptr<i8>, i64, ptr<struct<"struct._IO_codecvt", opaque>>, ptr<struct<"struct._IO_wide_data", opaque>>, ptr<struct<"struct._IO_FILE">>, ptr<i8>, i64, i32, array<20 x i8>)>>>
    %30 = llvm.mlir.addressof @str1 : !llvm.ptr<array<15 x i8>>
    %31 = llvm.getelementptr %30[%3, %3] : (!llvm.ptr<array<15 x i8>>, !llvm.i64, !llvm.i64) -> !llvm.ptr<i8>
    %32 = llvm.mlir.addressof @str7 : !llvm.ptr<array<3 x i8>>
    %33 = llvm.getelementptr %32[%3, %3] : (!llvm.ptr<array<3 x i8>>, !llvm.i64, !llvm.i64) -> !llvm.ptr<i8>
    %34 = llvm.call @fprintf(%29, %31, %33) : (!llvm.ptr<struct<"struct._IO_FILE", (i32, ptr<i8>, ptr<i8>, ptr<i8>, ptr<i8>, ptr<i8>, ptr<i8>, ptr<i8>, ptr<i8>, ptr<i8>, ptr<i8>, ptr<i8>, ptr<struct<"struct._IO_marker", opaque>>, ptr<struct<"struct._IO_FILE">>, i32, i32, i64, i16, i8, array<1 x i8>, ptr<i8>, i64, ptr<struct<"struct._IO_codecvt", opaque>>, ptr<struct<"struct._IO_wide_data", opaque>>, ptr<struct<"struct._IO_FILE">>, ptr<i8>, i64, i32, array<20 x i8>)>>, !llvm.ptr<i8>, !llvm.ptr<i8>) -> !llvm.i32
    br ^bb6(%c0_i32 : i32)
  ^bb3(%35: i32):  // 2 preds: ^bb1, ^bb4
    %36 = cmpi "slt", %35, %arg1 : i32
    %37 = index_cast %35 : i32 to index
    cond_br %36, ^bb4, ^bb5
  ^bb4:  // pred: ^bb3
    %38 = muli %13, %arg0 : i32
    %39 = addi %38, %35 : i32
    %40 = remi_signed %39, %c20_i32 : i32
    %41 = cmpi "eq", %40, %c0_i32 : i32
    scf.if %41 {
      %110 = llvm.mlir.addressof @stderr : !llvm.ptr<ptr<struct<"struct._IO_FILE", (i32, ptr<i8>, ptr<i8>, ptr<i8>, ptr<i8>, ptr<i8>, ptr<i8>, ptr<i8>, ptr<i8>, ptr<i8>, ptr<i8>, ptr<i8>, ptr<struct<"struct._IO_marker", opaque>>, ptr<struct<"struct._IO_FILE">>, i32, i32, i64, i16, i8, array<1 x i8>, ptr<i8>, i64, ptr<struct<"struct._IO_codecvt", opaque>>, ptr<struct<"struct._IO_wide_data", opaque>>, ptr<struct<"struct._IO_FILE">>, ptr<i8>, i64, i32, array<20 x i8>)>>>
      %111 = llvm.load %110 : !llvm.ptr<ptr<struct<"struct._IO_FILE", (i32, ptr<i8>, ptr<i8>, ptr<i8>, ptr<i8>, ptr<i8>, ptr<i8>, ptr<i8>, ptr<i8>, ptr<i8>, ptr<i8>, ptr<i8>, ptr<struct<"struct._IO_marker", opaque>>, ptr<struct<"struct._IO_FILE">>, i32, i32, i64, i16, i8, array<1 x i8>, ptr<i8>, i64, ptr<struct<"struct._IO_codecvt", opaque>>, ptr<struct<"struct._IO_wide_data", opaque>>, ptr<struct<"struct._IO_FILE">>, ptr<i8>, i64, i32, array<20 x i8>)>>>
      %112 = llvm.mlir.addressof @str3 : !llvm.ptr<array<2 x i8>>
      %113 = llvm.getelementptr %112[%3, %3] : (!llvm.ptr<array<2 x i8>>, !llvm.i64, !llvm.i64) -> !llvm.ptr<i8>
      %114 = llvm.call @fprintf(%111, %113) : (!llvm.ptr<struct<"struct._IO_FILE", (i32, ptr<i8>, ptr<i8>, ptr<i8>, ptr<i8>, ptr<i8>, ptr<i8>, ptr<i8>, ptr<i8>, ptr<i8>, ptr<i8>, ptr<i8>, ptr<struct<"struct._IO_marker", opaque>>, ptr<struct<"struct._IO_FILE">>, i32, i32, i64, i16, i8, array<1 x i8>, ptr<i8>, i64, ptr<struct<"struct._IO_codecvt", opaque>>, ptr<struct<"struct._IO_wide_data", opaque>>, ptr<struct<"struct._IO_FILE">>, ptr<i8>, i64, i32, array<20 x i8>)>>, !llvm.ptr<i8>) -> !llvm.i32
    }
    %42 = llvm.mlir.addressof @stderr : !llvm.ptr<ptr<struct<"struct._IO_FILE", (i32, ptr<i8>, ptr<i8>, ptr<i8>, ptr<i8>, ptr<i8>, ptr<i8>, ptr<i8>, ptr<i8>, ptr<i8>, ptr<i8>, ptr<i8>, ptr<struct<"struct._IO_marker", opaque>>, ptr<struct<"struct._IO_FILE">>, i32, i32, i64, i16, i8, array<1 x i8>, ptr<i8>, i64, ptr<struct<"struct._IO_codecvt", opaque>>, ptr<struct<"struct._IO_wide_data", opaque>>, ptr<struct<"struct._IO_FILE">>, ptr<i8>, i64, i32, array<20 x i8>)>>>
    %43 = llvm.load %42 : !llvm.ptr<ptr<struct<"struct._IO_FILE", (i32, ptr<i8>, ptr<i8>, ptr<i8>, ptr<i8>, ptr<i8>, ptr<i8>, ptr<i8>, ptr<i8>, ptr<i8>, ptr<i8>, ptr<i8>, ptr<struct<"struct._IO_marker", opaque>>, ptr<struct<"struct._IO_FILE">>, i32, i32, i64, i16, i8, array<1 x i8>, ptr<i8>, i64, ptr<struct<"struct._IO_codecvt", opaque>>, ptr<struct<"struct._IO_wide_data", opaque>>, ptr<struct<"struct._IO_FILE">>, ptr<i8>, i64, i32, array<20 x i8>)>>>
    %44 = llvm.mlir.addressof @str4 : !llvm.ptr<array<8 x i8>>
    %45 = llvm.getelementptr %44[%3, %3] : (!llvm.ptr<array<8 x i8>>, !llvm.i64, !llvm.i64) -> !llvm.ptr<i8>
    %46 = load %arg2[%15, %37] : memref<1000x1200xf64>
    %47 = llvm.mlir.cast %46 : f64 to !llvm.double
    %48 = llvm.call @fprintf(%43, %45, %47) : (!llvm.ptr<struct<"struct._IO_FILE", (i32, ptr<i8>, ptr<i8>, ptr<i8>, ptr<i8>, ptr<i8>, ptr<i8>, ptr<i8>, ptr<i8>, ptr<i8>, ptr<i8>, ptr<i8>, ptr<struct<"struct._IO_marker", opaque>>, ptr<struct<"struct._IO_FILE">>, i32, i32, i64, i16, i8, array<1 x i8>, ptr<i8>, i64, ptr<struct<"struct._IO_codecvt", opaque>>, ptr<struct<"struct._IO_wide_data", opaque>>, ptr<struct<"struct._IO_FILE">>, ptr<i8>, i64, i32, array<20 x i8>)>>, !llvm.ptr<i8>, !llvm.double) -> !llvm.i32
    %49 = addi %35, %c1_i32 : i32
    br ^bb3(%49 : i32)
  ^bb5:  // pred: ^bb3
    %50 = addi %13, %c1_i32 : i32
    br ^bb1(%50 : i32)
  ^bb6(%51: i32):  // 2 preds: ^bb2, ^bb10
    %52 = cmpi "slt", %51, %arg0 : i32
    %53 = index_cast %51 : i32 to index
    cond_br %52, ^bb8(%c0_i32 : i32), ^bb7
  ^bb7:  // pred: ^bb6
    %54 = llvm.mlir.addressof @stderr : !llvm.ptr<ptr<struct<"struct._IO_FILE", (i32, ptr<i8>, ptr<i8>, ptr<i8>, ptr<i8>, ptr<i8>, ptr<i8>, ptr<i8>, ptr<i8>, ptr<i8>, ptr<i8>, ptr<i8>, ptr<struct<"struct._IO_marker", opaque>>, ptr<struct<"struct._IO_FILE">>, i32, i32, i64, i16, i8, array<1 x i8>, ptr<i8>, i64, ptr<struct<"struct._IO_codecvt", opaque>>, ptr<struct<"struct._IO_wide_data", opaque>>, ptr<struct<"struct._IO_FILE">>, ptr<i8>, i64, i32, array<20 x i8>)>>>
    %55 = llvm.load %54 : !llvm.ptr<ptr<struct<"struct._IO_FILE", (i32, ptr<i8>, ptr<i8>, ptr<i8>, ptr<i8>, ptr<i8>, ptr<i8>, ptr<i8>, ptr<i8>, ptr<i8>, ptr<i8>, ptr<i8>, ptr<struct<"struct._IO_marker", opaque>>, ptr<struct<"struct._IO_FILE">>, i32, i32, i64, i16, i8, array<1 x i8>, ptr<i8>, i64, ptr<struct<"struct._IO_codecvt", opaque>>, ptr<struct<"struct._IO_wide_data", opaque>>, ptr<struct<"struct._IO_FILE">>, ptr<i8>, i64, i32, array<20 x i8>)>>>
    %56 = llvm.mlir.addressof @str5 : !llvm.ptr<array<17 x i8>>
    %57 = llvm.getelementptr %56[%3, %3] : (!llvm.ptr<array<17 x i8>>, !llvm.i64, !llvm.i64) -> !llvm.ptr<i8>
    %58 = llvm.mlir.addressof @str7 : !llvm.ptr<array<3 x i8>>
    %59 = llvm.getelementptr %58[%3, %3] : (!llvm.ptr<array<3 x i8>>, !llvm.i64, !llvm.i64) -> !llvm.ptr<i8>
    %60 = llvm.call @fprintf(%55, %57, %59) : (!llvm.ptr<struct<"struct._IO_FILE", (i32, ptr<i8>, ptr<i8>, ptr<i8>, ptr<i8>, ptr<i8>, ptr<i8>, ptr<i8>, ptr<i8>, ptr<i8>, ptr<i8>, ptr<i8>, ptr<struct<"struct._IO_marker", opaque>>, ptr<struct<"struct._IO_FILE">>, i32, i32, i64, i16, i8, array<1 x i8>, ptr<i8>, i64, ptr<struct<"struct._IO_codecvt", opaque>>, ptr<struct<"struct._IO_wide_data", opaque>>, ptr<struct<"struct._IO_FILE">>, ptr<i8>, i64, i32, array<20 x i8>)>>, !llvm.ptr<i8>, !llvm.ptr<i8>) -> !llvm.i32
    %61 = llvm.mlir.addressof @stderr : !llvm.ptr<ptr<struct<"struct._IO_FILE", (i32, ptr<i8>, ptr<i8>, ptr<i8>, ptr<i8>, ptr<i8>, ptr<i8>, ptr<i8>, ptr<i8>, ptr<i8>, ptr<i8>, ptr<i8>, ptr<struct<"struct._IO_marker", opaque>>, ptr<struct<"struct._IO_FILE">>, i32, i32, i64, i16, i8, array<1 x i8>, ptr<i8>, i64, ptr<struct<"struct._IO_codecvt", opaque>>, ptr<struct<"struct._IO_wide_data", opaque>>, ptr<struct<"struct._IO_FILE">>, ptr<i8>, i64, i32, array<20 x i8>)>>>
    %62 = llvm.load %61 : !llvm.ptr<ptr<struct<"struct._IO_FILE", (i32, ptr<i8>, ptr<i8>, ptr<i8>, ptr<i8>, ptr<i8>, ptr<i8>, ptr<i8>, ptr<i8>, ptr<i8>, ptr<i8>, ptr<i8>, ptr<struct<"struct._IO_marker", opaque>>, ptr<struct<"struct._IO_FILE">>, i32, i32, i64, i16, i8, array<1 x i8>, ptr<i8>, i64, ptr<struct<"struct._IO_codecvt", opaque>>, ptr<struct<"struct._IO_wide_data", opaque>>, ptr<struct<"struct._IO_FILE">>, ptr<i8>, i64, i32, array<20 x i8>)>>>
    %63 = llvm.mlir.addressof @str1 : !llvm.ptr<array<15 x i8>>
    %64 = llvm.getelementptr %63[%3, %3] : (!llvm.ptr<array<15 x i8>>, !llvm.i64, !llvm.i64) -> !llvm.ptr<i8>
    %65 = llvm.mlir.addressof @str8 : !llvm.ptr<array<3 x i8>>
    %66 = llvm.getelementptr %65[%3, %3] : (!llvm.ptr<array<3 x i8>>, !llvm.i64, !llvm.i64) -> !llvm.ptr<i8>
    %67 = llvm.call @fprintf(%62, %64, %66) : (!llvm.ptr<struct<"struct._IO_FILE", (i32, ptr<i8>, ptr<i8>, ptr<i8>, ptr<i8>, ptr<i8>, ptr<i8>, ptr<i8>, ptr<i8>, ptr<i8>, ptr<i8>, ptr<i8>, ptr<struct<"struct._IO_marker", opaque>>, ptr<struct<"struct._IO_FILE">>, i32, i32, i64, i16, i8, array<1 x i8>, ptr<i8>, i64, ptr<struct<"struct._IO_codecvt", opaque>>, ptr<struct<"struct._IO_wide_data", opaque>>, ptr<struct<"struct._IO_FILE">>, ptr<i8>, i64, i32, array<20 x i8>)>>, !llvm.ptr<i8>, !llvm.ptr<i8>) -> !llvm.i32
    br ^bb11(%c0_i32 : i32)
  ^bb8(%68: i32):  // 2 preds: ^bb6, ^bb9
    %69 = cmpi "slt", %68, %arg1 : i32
    %70 = index_cast %68 : i32 to index
    cond_br %69, ^bb9, ^bb10
  ^bb9:  // pred: ^bb8
    %71 = muli %51, %arg0 : i32
    %72 = addi %71, %68 : i32
    %73 = remi_signed %72, %c20_i32 : i32
    %74 = cmpi "eq", %73, %c0_i32 : i32
    scf.if %74 {
      %110 = llvm.mlir.addressof @stderr : !llvm.ptr<ptr<struct<"struct._IO_FILE", (i32, ptr<i8>, ptr<i8>, ptr<i8>, ptr<i8>, ptr<i8>, ptr<i8>, ptr<i8>, ptr<i8>, ptr<i8>, ptr<i8>, ptr<i8>, ptr<struct<"struct._IO_marker", opaque>>, ptr<struct<"struct._IO_FILE">>, i32, i32, i64, i16, i8, array<1 x i8>, ptr<i8>, i64, ptr<struct<"struct._IO_codecvt", opaque>>, ptr<struct<"struct._IO_wide_data", opaque>>, ptr<struct<"struct._IO_FILE">>, ptr<i8>, i64, i32, array<20 x i8>)>>>
      %111 = llvm.load %110 : !llvm.ptr<ptr<struct<"struct._IO_FILE", (i32, ptr<i8>, ptr<i8>, ptr<i8>, ptr<i8>, ptr<i8>, ptr<i8>, ptr<i8>, ptr<i8>, ptr<i8>, ptr<i8>, ptr<i8>, ptr<struct<"struct._IO_marker", opaque>>, ptr<struct<"struct._IO_FILE">>, i32, i32, i64, i16, i8, array<1 x i8>, ptr<i8>, i64, ptr<struct<"struct._IO_codecvt", opaque>>, ptr<struct<"struct._IO_wide_data", opaque>>, ptr<struct<"struct._IO_FILE">>, ptr<i8>, i64, i32, array<20 x i8>)>>>
      %112 = llvm.mlir.addressof @str3 : !llvm.ptr<array<2 x i8>>
      %113 = llvm.getelementptr %112[%3, %3] : (!llvm.ptr<array<2 x i8>>, !llvm.i64, !llvm.i64) -> !llvm.ptr<i8>
      %114 = llvm.call @fprintf(%111, %113) : (!llvm.ptr<struct<"struct._IO_FILE", (i32, ptr<i8>, ptr<i8>, ptr<i8>, ptr<i8>, ptr<i8>, ptr<i8>, ptr<i8>, ptr<i8>, ptr<i8>, ptr<i8>, ptr<i8>, ptr<struct<"struct._IO_marker", opaque>>, ptr<struct<"struct._IO_FILE">>, i32, i32, i64, i16, i8, array<1 x i8>, ptr<i8>, i64, ptr<struct<"struct._IO_codecvt", opaque>>, ptr<struct<"struct._IO_wide_data", opaque>>, ptr<struct<"struct._IO_FILE">>, ptr<i8>, i64, i32, array<20 x i8>)>>, !llvm.ptr<i8>) -> !llvm.i32
    }
    %75 = llvm.mlir.addressof @stderr : !llvm.ptr<ptr<struct<"struct._IO_FILE", (i32, ptr<i8>, ptr<i8>, ptr<i8>, ptr<i8>, ptr<i8>, ptr<i8>, ptr<i8>, ptr<i8>, ptr<i8>, ptr<i8>, ptr<i8>, ptr<struct<"struct._IO_marker", opaque>>, ptr<struct<"struct._IO_FILE">>, i32, i32, i64, i16, i8, array<1 x i8>, ptr<i8>, i64, ptr<struct<"struct._IO_codecvt", opaque>>, ptr<struct<"struct._IO_wide_data", opaque>>, ptr<struct<"struct._IO_FILE">>, ptr<i8>, i64, i32, array<20 x i8>)>>>
    %76 = llvm.load %75 : !llvm.ptr<ptr<struct<"struct._IO_FILE", (i32, ptr<i8>, ptr<i8>, ptr<i8>, ptr<i8>, ptr<i8>, ptr<i8>, ptr<i8>, ptr<i8>, ptr<i8>, ptr<i8>, ptr<i8>, ptr<struct<"struct._IO_marker", opaque>>, ptr<struct<"struct._IO_FILE">>, i32, i32, i64, i16, i8, array<1 x i8>, ptr<i8>, i64, ptr<struct<"struct._IO_codecvt", opaque>>, ptr<struct<"struct._IO_wide_data", opaque>>, ptr<struct<"struct._IO_FILE">>, ptr<i8>, i64, i32, array<20 x i8>)>>>
    %77 = llvm.mlir.addressof @str4 : !llvm.ptr<array<8 x i8>>
    %78 = llvm.getelementptr %77[%3, %3] : (!llvm.ptr<array<8 x i8>>, !llvm.i64, !llvm.i64) -> !llvm.ptr<i8>
    %79 = load %arg3[%53, %70] : memref<1000x1200xf64>
    %80 = llvm.mlir.cast %79 : f64 to !llvm.double
    %81 = llvm.call @fprintf(%76, %78, %80) : (!llvm.ptr<struct<"struct._IO_FILE", (i32, ptr<i8>, ptr<i8>, ptr<i8>, ptr<i8>, ptr<i8>, ptr<i8>, ptr<i8>, ptr<i8>, ptr<i8>, ptr<i8>, ptr<i8>, ptr<struct<"struct._IO_marker", opaque>>, ptr<struct<"struct._IO_FILE">>, i32, i32, i64, i16, i8, array<1 x i8>, ptr<i8>, i64, ptr<struct<"struct._IO_codecvt", opaque>>, ptr<struct<"struct._IO_wide_data", opaque>>, ptr<struct<"struct._IO_FILE">>, ptr<i8>, i64, i32, array<20 x i8>)>>, !llvm.ptr<i8>, !llvm.double) -> !llvm.i32
    %82 = addi %68, %c1_i32 : i32
    br ^bb8(%82 : i32)
  ^bb10:  // pred: ^bb8
    %83 = addi %51, %c1_i32 : i32
    br ^bb6(%83 : i32)
  ^bb11(%84: i32):  // 2 preds: ^bb7, ^bb15
    %85 = cmpi "slt", %84, %arg0 : i32
    %86 = index_cast %84 : i32 to index
    cond_br %85, ^bb13(%c0_i32 : i32), ^bb12
  ^bb12:  // pred: ^bb11
    %87 = llvm.mlir.addressof @stderr : !llvm.ptr<ptr<struct<"struct._IO_FILE", (i32, ptr<i8>, ptr<i8>, ptr<i8>, ptr<i8>, ptr<i8>, ptr<i8>, ptr<i8>, ptr<i8>, ptr<i8>, ptr<i8>, ptr<i8>, ptr<struct<"struct._IO_marker", opaque>>, ptr<struct<"struct._IO_FILE">>, i32, i32, i64, i16, i8, array<1 x i8>, ptr<i8>, i64, ptr<struct<"struct._IO_codecvt", opaque>>, ptr<struct<"struct._IO_wide_data", opaque>>, ptr<struct<"struct._IO_FILE">>, ptr<i8>, i64, i32, array<20 x i8>)>>>
    %88 = llvm.load %87 : !llvm.ptr<ptr<struct<"struct._IO_FILE", (i32, ptr<i8>, ptr<i8>, ptr<i8>, ptr<i8>, ptr<i8>, ptr<i8>, ptr<i8>, ptr<i8>, ptr<i8>, ptr<i8>, ptr<i8>, ptr<struct<"struct._IO_marker", opaque>>, ptr<struct<"struct._IO_FILE">>, i32, i32, i64, i16, i8, array<1 x i8>, ptr<i8>, i64, ptr<struct<"struct._IO_codecvt", opaque>>, ptr<struct<"struct._IO_wide_data", opaque>>, ptr<struct<"struct._IO_FILE">>, ptr<i8>, i64, i32, array<20 x i8>)>>>
    %89 = llvm.mlir.addressof @str5 : !llvm.ptr<array<17 x i8>>
    %90 = llvm.getelementptr %89[%3, %3] : (!llvm.ptr<array<17 x i8>>, !llvm.i64, !llvm.i64) -> !llvm.ptr<i8>
    %91 = llvm.mlir.addressof @str8 : !llvm.ptr<array<3 x i8>>
    %92 = llvm.getelementptr %91[%3, %3] : (!llvm.ptr<array<3 x i8>>, !llvm.i64, !llvm.i64) -> !llvm.ptr<i8>
    %93 = llvm.call @fprintf(%88, %90, %92) : (!llvm.ptr<struct<"struct._IO_FILE", (i32, ptr<i8>, ptr<i8>, ptr<i8>, ptr<i8>, ptr<i8>, ptr<i8>, ptr<i8>, ptr<i8>, ptr<i8>, ptr<i8>, ptr<i8>, ptr<struct<"struct._IO_marker", opaque>>, ptr<struct<"struct._IO_FILE">>, i32, i32, i64, i16, i8, array<1 x i8>, ptr<i8>, i64, ptr<struct<"struct._IO_codecvt", opaque>>, ptr<struct<"struct._IO_wide_data", opaque>>, ptr<struct<"struct._IO_FILE">>, ptr<i8>, i64, i32, array<20 x i8>)>>, !llvm.ptr<i8>, !llvm.ptr<i8>) -> !llvm.i32
    return
  ^bb13(%94: i32):  // 2 preds: ^bb11, ^bb14
    %95 = cmpi "slt", %94, %arg1 : i32
    %96 = index_cast %94 : i32 to index
    cond_br %95, ^bb14, ^bb15
  ^bb14:  // pred: ^bb13
    %97 = muli %84, %arg0 : i32
    %98 = addi %97, %94 : i32
    %99 = remi_signed %98, %c20_i32 : i32
    %100 = cmpi "eq", %99, %c0_i32 : i32
    scf.if %100 {
      %110 = llvm.mlir.addressof @stderr : !llvm.ptr<ptr<struct<"struct._IO_FILE", (i32, ptr<i8>, ptr<i8>, ptr<i8>, ptr<i8>, ptr<i8>, ptr<i8>, ptr<i8>, ptr<i8>, ptr<i8>, ptr<i8>, ptr<i8>, ptr<struct<"struct._IO_marker", opaque>>, ptr<struct<"struct._IO_FILE">>, i32, i32, i64, i16, i8, array<1 x i8>, ptr<i8>, i64, ptr<struct<"struct._IO_codecvt", opaque>>, ptr<struct<"struct._IO_wide_data", opaque>>, ptr<struct<"struct._IO_FILE">>, ptr<i8>, i64, i32, array<20 x i8>)>>>
      %111 = llvm.load %110 : !llvm.ptr<ptr<struct<"struct._IO_FILE", (i32, ptr<i8>, ptr<i8>, ptr<i8>, ptr<i8>, ptr<i8>, ptr<i8>, ptr<i8>, ptr<i8>, ptr<i8>, ptr<i8>, ptr<i8>, ptr<struct<"struct._IO_marker", opaque>>, ptr<struct<"struct._IO_FILE">>, i32, i32, i64, i16, i8, array<1 x i8>, ptr<i8>, i64, ptr<struct<"struct._IO_codecvt", opaque>>, ptr<struct<"struct._IO_wide_data", opaque>>, ptr<struct<"struct._IO_FILE">>, ptr<i8>, i64, i32, array<20 x i8>)>>>
      %112 = llvm.mlir.addressof @str3 : !llvm.ptr<array<2 x i8>>
      %113 = llvm.getelementptr %112[%3, %3] : (!llvm.ptr<array<2 x i8>>, !llvm.i64, !llvm.i64) -> !llvm.ptr<i8>
      %114 = llvm.call @fprintf(%111, %113) : (!llvm.ptr<struct<"struct._IO_FILE", (i32, ptr<i8>, ptr<i8>, ptr<i8>, ptr<i8>, ptr<i8>, ptr<i8>, ptr<i8>, ptr<i8>, ptr<i8>, ptr<i8>, ptr<i8>, ptr<struct<"struct._IO_marker", opaque>>, ptr<struct<"struct._IO_FILE">>, i32, i32, i64, i16, i8, array<1 x i8>, ptr<i8>, i64, ptr<struct<"struct._IO_codecvt", opaque>>, ptr<struct<"struct._IO_wide_data", opaque>>, ptr<struct<"struct._IO_FILE">>, ptr<i8>, i64, i32, array<20 x i8>)>>, !llvm.ptr<i8>) -> !llvm.i32
    }
    %101 = llvm.mlir.addressof @stderr : !llvm.ptr<ptr<struct<"struct._IO_FILE", (i32, ptr<i8>, ptr<i8>, ptr<i8>, ptr<i8>, ptr<i8>, ptr<i8>, ptr<i8>, ptr<i8>, ptr<i8>, ptr<i8>, ptr<i8>, ptr<struct<"struct._IO_marker", opaque>>, ptr<struct<"struct._IO_FILE">>, i32, i32, i64, i16, i8, array<1 x i8>, ptr<i8>, i64, ptr<struct<"struct._IO_codecvt", opaque>>, ptr<struct<"struct._IO_wide_data", opaque>>, ptr<struct<"struct._IO_FILE">>, ptr<i8>, i64, i32, array<20 x i8>)>>>
    %102 = llvm.load %101 : !llvm.ptr<ptr<struct<"struct._IO_FILE", (i32, ptr<i8>, ptr<i8>, ptr<i8>, ptr<i8>, ptr<i8>, ptr<i8>, ptr<i8>, ptr<i8>, ptr<i8>, ptr<i8>, ptr<i8>, ptr<struct<"struct._IO_marker", opaque>>, ptr<struct<"struct._IO_FILE">>, i32, i32, i64, i16, i8, array<1 x i8>, ptr<i8>, i64, ptr<struct<"struct._IO_codecvt", opaque>>, ptr<struct<"struct._IO_wide_data", opaque>>, ptr<struct<"struct._IO_FILE">>, ptr<i8>, i64, i32, array<20 x i8>)>>>
    %103 = llvm.mlir.addressof @str4 : !llvm.ptr<array<8 x i8>>
    %104 = llvm.getelementptr %103[%3, %3] : (!llvm.ptr<array<8 x i8>>, !llvm.i64, !llvm.i64) -> !llvm.ptr<i8>
    %105 = load %arg4[%86, %96] : memref<1000x1200xf64>
    %106 = llvm.mlir.cast %105 : f64 to !llvm.double
    %107 = llvm.call @fprintf(%102, %104, %106) : (!llvm.ptr<struct<"struct._IO_FILE", (i32, ptr<i8>, ptr<i8>, ptr<i8>, ptr<i8>, ptr<i8>, ptr<i8>, ptr<i8>, ptr<i8>, ptr<i8>, ptr<i8>, ptr<i8>, ptr<struct<"struct._IO_marker", opaque>>, ptr<struct<"struct._IO_FILE">>, i32, i32, i64, i16, i8, array<1 x i8>, ptr<i8>, i64, ptr<struct<"struct._IO_codecvt", opaque>>, ptr<struct<"struct._IO_wide_data", opaque>>, ptr<struct<"struct._IO_FILE">>, ptr<i8>, i64, i32, array<20 x i8>)>>, !llvm.ptr<i8>, !llvm.double) -> !llvm.i32
    %108 = addi %94, %c1_i32 : i32
    br ^bb13(%108 : i32)
  ^bb15:  // pred: ^bb13
    %109 = addi %84, %c1_i32 : i32
    br ^bb11(%109 : i32)
  }
  func private @free(memref<?xi8>)
  func private @S0(%arg0: memref<1000x1200xf64>, %arg1: index, %arg2: memref<500xf64>, %arg3: index) attributes {scop.stmt} {
    %0 = affine.load %arg2[%arg3] : memref<500xf64>
    affine.store %0, %arg0[0, %arg1] : memref<1000x1200xf64>
    return
  }
  func private @S1(%arg0: memref<1000x1200xf64>, %arg1: index, %arg2: index, %arg3: memref<1000x1200xf64>) attributes {scop.stmt} {
    %cst = constant 5.000000e-01 : f64
    %0 = affine.load %arg0[%arg1, %arg2] : memref<1000x1200xf64>
    %1 = affine.load %arg3[%arg1, %arg2] : memref<1000x1200xf64>
    %2 = affine.load %arg3[%arg1 - 1, %arg2] : memref<1000x1200xf64>
    %3 = subf %1, %2 : f64
    %4 = mulf %cst, %3 : f64
    %5 = subf %0, %4 : f64
    affine.store %5, %arg0[%arg1, %arg2] : memref<1000x1200xf64>
    return
  }
  func private @S2(%arg0: memref<1000x1200xf64>, %arg1: index, %arg2: index, %arg3: memref<1000x1200xf64>) attributes {scop.stmt} {
    %cst = constant 5.000000e-01 : f64
    %0 = affine.load %arg0[%arg1, %arg2] : memref<1000x1200xf64>
    %1 = affine.load %arg3[%arg1, %arg2] : memref<1000x1200xf64>
    %2 = affine.load %arg3[%arg1, %arg2 - 1] : memref<1000x1200xf64>
    %3 = subf %1, %2 : f64
    %4 = mulf %cst, %3 : f64
    %5 = subf %0, %4 : f64
    affine.store %5, %arg0[%arg1, %arg2] : memref<1000x1200xf64>
    return
  }
  func private @S3(%arg0: memref<1000x1200xf64>, %arg1: index, %arg2: index, %arg3: memref<1000x1200xf64>, %arg4: memref<1000x1200xf64>) attributes {scop.stmt} {
    %cst = constant 0.69999999999999996 : f64
    %0 = affine.load %arg0[%arg1, %arg2] : memref<1000x1200xf64>
    %1 = affine.load %arg4[%arg1, %arg2 + 1] : memref<1000x1200xf64>
    %2 = affine.load %arg4[%arg1, %arg2] : memref<1000x1200xf64>
    %3 = subf %1, %2 : f64
    %4 = affine.load %arg3[%arg1 + 1, %arg2] : memref<1000x1200xf64>
    %5 = addf %3, %4 : f64
    %6 = affine.load %arg3[%arg1, %arg2] : memref<1000x1200xf64>
    %7 = subf %5, %6 : f64
    %8 = mulf %cst, %7 : f64
    %9 = subf %0, %8 : f64
    affine.store %9, %arg0[%arg1, %arg2] : memref<1000x1200xf64>
    return
  }
  func @"\A0A\F0\02\00\00\00\00dtd_2d_new"(%arg0: i32, %arg1: i32, %arg2: i32, %arg3: memref<1000x1200xf64>, %arg4: memref<1000x1200xf64>, %arg5: memref<1000x1200xf64>, %arg6: memref<500xf64>) {
    %c0 = constant 0 : index
    %0 = index_cast %arg2 : i32 to index
    %1 = index_cast %arg1 : i32 to index
    %2 = index_cast %arg0 : i32 to index
    affine.for %arg7 = -1 to #map98()[%2] {
      affine.if #set43(%arg7)[%2] {
        affine.if #set44()[%2] {
          %5 = affine.apply #map99()[%2]
          call @S0(%arg4, %5, %arg6, %c0) : (memref<1000x1200xf64>, index, memref<500xf64>, index) -> ()
          affine.for %arg8 = #map100()[%2] to #map101()[%2, %1] {
            affine.for %arg9 = max #map102(%arg8)[%2] to min #map103(%arg8)[%2, %1] {
              %6 = affine.apply #map99()[%2]
              %7 = affine.apply #map2(%arg9)[%2]
              call @S1(%arg4, %6, %7, %arg5) : (memref<1000x1200xf64>, index, index, memref<1000x1200xf64>) -> ()
            }
            affine.for %arg9 = max #map102(%arg8)[%2] to min #map103(%arg8)[%2, %1] {
              %6 = affine.apply #map99()[%2]
              %7 = affine.apply #map3(%arg9)[%2]
              call @S3(%arg5, %6, %7, %arg4, %arg3) : (memref<1000x1200xf64>, index, index, memref<1000x1200xf64>, memref<1000x1200xf64>) -> ()
            }
          }
        }
      }
      affine.for %arg8 = max #map104(%arg7)[%2] to min #map105(%arg7)[%2, %1, %0] {
        affine.if #set45(%arg7, %arg8)[%0] {
          affine.if #set3(%arg7) {
            affine.for %arg9 = max #map106(%arg7)[%1, %0] to #map7(%arg7) {
              affine.for %arg10 = #map107(%arg7)[%0] to min #map108(%arg7, %arg9)[%1, %0] {
                affine.if #set46(%arg7)[%0] {
                  %5 = affine.apply #map10(%arg9, %arg10)
                  call @S0(%arg4, %arg9, %arg6, %5) : (memref<1000x1200xf64>, index, memref<500xf64>, index) -> ()
                }
              }
            }
            affine.if #set46(%arg7)[%0] {
              %5 = affine.apply #map7(%arg7)
              call @S2(%arg3, %5, %c0, %arg5) : (memref<1000x1200xf64>, index, index, memref<1000x1200xf64>) -> ()
            }
            affine.for %arg9 = #map107(%arg7)[%0] to min #map109(%arg7)[%1, %0] {
              affine.if #set46(%arg7)[%0] {
                %5 = affine.apply #map7(%arg7)
                %6 = affine.apply #map12(%arg7, %arg9)
                call @S0(%arg4, %5, %arg6, %6) : (memref<1000x1200xf64>, index, memref<500xf64>, index) -> ()
              }
            }
          }
        }
        affine.for %arg9 = max #map110(%arg7, %arg8)[%0] to min #map111(%arg7)[%2] {
          affine.if #set5(%arg7, %arg8, %arg9) {
            affine.if #set6(%arg7) {
              %5 = affine.apply #map15(%arg7)
              call @S0(%arg4, %5, %arg6, %c0) : (memref<1000x1200xf64>, index, memref<500xf64>, index) -> ()
            }
            affine.for %arg10 = #map16(%arg7) to min #map112(%arg7)[%1] {
              affine.if #set6(%arg7) {
                %5 = affine.apply #map15(%arg7)
                %6 = affine.apply #map18(%arg7, %arg10)
                call @S1(%arg4, %5, %6, %arg5) : (memref<1000x1200xf64>, index, index, memref<1000x1200xf64>) -> ()
              }
            }
            affine.for %arg10 = #map16(%arg7) to min #map112(%arg7)[%1] {
              affine.if #set6(%arg7) {
                %5 = affine.apply #map15(%arg7)
                %6 = affine.apply #map19(%arg7, %arg10)
                call @S3(%arg5, %5, %6, %arg4, %arg3) : (memref<1000x1200xf64>, index, index, memref<1000x1200xf64>, memref<1000x1200xf64>) -> ()
              }
            }
          }
          affine.for %arg10 = max #map113(%arg7, %arg8, %arg9)[%1] to #map114(%arg8)[%0] {
            affine.for %arg11 = #map22(%arg8) to min #map115(%arg7, %arg8, %arg10)[%1] {
              %5 = affine.apply #map10(%arg10, %arg11)
              call @S0(%arg4, %arg10, %arg6, %5) : (memref<1000x1200xf64>, index, memref<500xf64>, index) -> ()
            }
          }
          affine.for %arg10 = max #map113(%arg7, %arg8, %arg9)[%0] to #map114(%arg8)[%1] {
            affine.for %arg11 = #map22(%arg8) to min #map115(%arg7, %arg8, %arg10)[%0] {
              call @S2(%arg3, %arg10, %c0, %arg5) : (memref<1000x1200xf64>, index, index, memref<1000x1200xf64>) -> ()
              affine.for %arg12 = #map27(%arg10) to min #map116(%arg9, %arg10)[%1] {
                %5 = affine.apply #map29(%arg10, %arg12)
                call @S3(%arg5, %arg10, %5, %arg4, %arg3) : (memref<1000x1200xf64>, index, index, memref<1000x1200xf64>, memref<1000x1200xf64>) -> ()
                %6 = affine.apply #map10(%arg10, %arg12)
                call @S1(%arg4, %arg10, %6, %arg5) : (memref<1000x1200xf64>, index, index, memref<1000x1200xf64>) -> ()
                %7 = affine.apply #map10(%arg10, %arg12)
                call @S2(%arg3, %arg10, %7, %arg5) : (memref<1000x1200xf64>, index, index, memref<1000x1200xf64>) -> ()
              }
            }
            affine.if #set47(%arg7, %arg8, %arg10)[%0] {
              affine.for %arg11 = #map27(%arg10) to min #map116(%arg9, %arg10)[%1] {
                %5 = affine.apply #map29(%arg10, %arg11)
                call @S3(%arg5, %arg10, %5, %arg4, %arg3) : (memref<1000x1200xf64>, index, index, memref<1000x1200xf64>, memref<1000x1200xf64>) -> ()
              }
            }
          }
          affine.if #set8(%arg7, %arg9) {
            affine.for %arg10 = max #map117(%arg7, %arg8)[%1, %0] to #map31(%arg7) {
              affine.for %arg11 = #map22(%arg8) to min #map115(%arg7, %arg8, %arg10)[%0] {
                affine.for %arg12 = #map31(%arg7) to min #map118(%arg7, %arg10)[%1] {
                  affine.if #set3(%arg7) {
                    %5 = affine.apply #map29(%arg10, %arg12)
                    call @S3(%arg5, %arg10, %5, %arg4, %arg3) : (memref<1000x1200xf64>, index, index, memref<1000x1200xf64>, memref<1000x1200xf64>) -> ()
                  }
                  affine.if #set3(%arg7) {
                    %5 = affine.apply #map10(%arg10, %arg12)
                    call @S1(%arg4, %arg10, %5, %arg5) : (memref<1000x1200xf64>, index, index, memref<1000x1200xf64>) -> ()
                  }
                  affine.if #set3(%arg7) {
                    %5 = affine.apply #map10(%arg10, %arg12)
                    call @S2(%arg3, %arg10, %5, %arg5) : (memref<1000x1200xf64>, index, index, memref<1000x1200xf64>) -> ()
                  }
                }
              }
              affine.if #set47(%arg7, %arg8, %arg10)[%0] {
                affine.for %arg11 = #map31(%arg7) to min #map118(%arg7, %arg10)[%1] {
                  affine.if #set3(%arg7) {
                    %5 = affine.apply #map29(%arg10, %arg11)
                    call @S3(%arg5, %arg10, %5, %arg4, %arg3) : (memref<1000x1200xf64>, index, index, memref<1000x1200xf64>, memref<1000x1200xf64>) -> ()
                  }
                }
              }
            }
          }
          affine.for %arg10 = max #map119(%arg7, %arg8, %arg9)[%1, %0] to min #map120(%arg7, %arg8, %arg9)[%2, %1, %0] {
            affine.if #set9(%arg7, %arg8, %arg10) {
              call @S2(%arg3, %arg10, %c0, %arg5) : (memref<1000x1200xf64>, index, index, memref<1000x1200xf64>) -> ()
              %5 = affine.apply #map35(%arg7, %arg8, %arg10)
              call @S0(%arg4, %arg10, %arg6, %5) : (memref<1000x1200xf64>, index, memref<500xf64>, index) -> ()
              affine.for %arg11 = #map27(%arg10) to min #map116(%arg9, %arg10)[%1] {
                %6 = affine.apply #map10(%arg10, %arg11)
                call @S1(%arg4, %arg10, %6, %arg5) : (memref<1000x1200xf64>, index, index, memref<1000x1200xf64>) -> ()
                %7 = affine.apply #map10(%arg10, %arg11)
                call @S2(%arg3, %arg10, %7, %arg5) : (memref<1000x1200xf64>, index, index, memref<1000x1200xf64>) -> ()
              }
            }
            affine.if #set5(%arg7, %arg8, %arg9) {
              affine.if #set6(%arg7) {
                call @S0(%arg4, %arg10, %arg6, %c0) : (memref<1000x1200xf64>, index, memref<500xf64>, index) -> ()
              }
              affine.for %arg11 = #map27(%arg10) to min #map121(%arg7, %arg10)[%1] {
                affine.if #set6(%arg7) {
                  %5 = affine.apply #map10(%arg10, %arg11)
                  call @S1(%arg4, %arg10, %5, %arg5) : (memref<1000x1200xf64>, index, index, memref<1000x1200xf64>) -> ()
                }
              }
            }
            affine.for %arg11 = max #map37(%arg7, %arg8, %arg10) to min #map122(%arg7, %arg8, %arg10)[%1, %0] {
              call @S2(%arg3, %arg10, %c0, %arg5) : (memref<1000x1200xf64>, index, index, memref<1000x1200xf64>) -> ()
              %5 = affine.apply #map10(%arg10, %arg11)
              call @S0(%arg4, %arg10, %arg6, %5) : (memref<1000x1200xf64>, index, memref<500xf64>, index) -> ()
              affine.for %arg12 = #map27(%arg10) to min #map116(%arg9, %arg10)[%1] {
                %6 = affine.apply #map29(%arg10, %arg12)
                call @S3(%arg5, %arg10, %6, %arg4, %arg3) : (memref<1000x1200xf64>, index, index, memref<1000x1200xf64>, memref<1000x1200xf64>) -> ()
                %7 = affine.apply #map10(%arg10, %arg12)
                call @S1(%arg4, %arg10, %7, %arg5) : (memref<1000x1200xf64>, index, index, memref<1000x1200xf64>) -> ()
                %8 = affine.apply #map10(%arg10, %arg12)
                call @S2(%arg3, %arg10, %8, %arg5) : (memref<1000x1200xf64>, index, index, memref<1000x1200xf64>) -> ()
              }
            }
            affine.for %arg11 = #map123(%arg10)[%0] to min #map124(%arg7, %arg8, %arg10)[%1] {
              %5 = affine.apply #map10(%arg10, %arg11)
              call @S0(%arg4, %arg10, %arg6, %5) : (memref<1000x1200xf64>, index, memref<500xf64>, index) -> ()
            }
            affine.for %arg11 = #map123(%arg10)[%1] to min #map124(%arg7, %arg8, %arg10)[%0] {
              call @S2(%arg3, %arg10, %c0, %arg5) : (memref<1000x1200xf64>, index, index, memref<1000x1200xf64>) -> ()
              affine.for %arg12 = #map27(%arg10) to min #map116(%arg9, %arg10)[%1] {
                %5 = affine.apply #map29(%arg10, %arg12)
                call @S3(%arg5, %arg10, %5, %arg4, %arg3) : (memref<1000x1200xf64>, index, index, memref<1000x1200xf64>, memref<1000x1200xf64>) -> ()
                %6 = affine.apply #map10(%arg10, %arg12)
                call @S1(%arg4, %arg10, %6, %arg5) : (memref<1000x1200xf64>, index, index, memref<1000x1200xf64>) -> ()
                %7 = affine.apply #map10(%arg10, %arg12)
                call @S2(%arg3, %arg10, %7, %arg5) : (memref<1000x1200xf64>, index, index, memref<1000x1200xf64>) -> ()
              }
            }
            affine.if #set48(%arg7, %arg8, %arg10)[%0] {
              affine.for %arg11 = #map27(%arg10) to min #map116(%arg9, %arg10)[%1] {
                %5 = affine.apply #map29(%arg10, %arg11)
                call @S3(%arg5, %arg10, %5, %arg4, %arg3) : (memref<1000x1200xf64>, index, index, memref<1000x1200xf64>, memref<1000x1200xf64>) -> ()
              }
            }
          }
          affine.if #set49(%arg7, %arg8, %arg9)[%2, %1, %0] {
            %5 = affine.apply #map43(%arg7, %arg8)[%0]
            call @S2(%arg3, %5, %c0, %arg5) : (memref<1000x1200xf64>, index, index, memref<1000x1200xf64>) -> ()
            %6 = affine.apply #map43(%arg7, %arg8)[%0]
            %7 = affine.apply #map99()[%0]
            call @S0(%arg4, %6, %arg6, %7) : (memref<1000x1200xf64>, index, memref<500xf64>, index) -> ()
            affine.for %arg10 = #map125(%arg7, %arg8)[%0] to min #map126(%arg7, %arg8, %arg9)[%1, %0] {
              %8 = affine.apply #map43(%arg7, %arg8)[%0]
              %9 = affine.apply #map46(%arg7, %arg8, %arg10)[%0]
              call @S1(%arg4, %8, %9, %arg5) : (memref<1000x1200xf64>, index, index, memref<1000x1200xf64>) -> ()
              %10 = affine.apply #map43(%arg7, %arg8)[%0]
              %11 = affine.apply #map46(%arg7, %arg8, %arg10)[%0]
              call @S2(%arg3, %10, %11, %arg5) : (memref<1000x1200xf64>, index, index, memref<1000x1200xf64>) -> ()
            }
            affine.for %arg10 = #map127(%arg7, %arg8)[%0] to min #map128(%arg7, %arg8)[%1, %0] {
              %8 = affine.apply #map43(%arg7, %arg8)[%0]
              %9 = affine.apply #map46(%arg7, %arg8, %arg10)[%0]
              call @S0(%arg4, %8, %arg6, %9) : (memref<1000x1200xf64>, index, memref<500xf64>, index) -> ()
            }
          }
          affine.if #set50(%arg7, %arg8, %arg9)[%2, %1, %0] {
            affine.if #set3(%arg7) {
              %5 = affine.apply #map49(%arg7)
              call @S2(%arg3, %5, %c0, %arg5) : (memref<1000x1200xf64>, index, index, memref<1000x1200xf64>) -> ()
            }
            affine.if #set3(%arg7) {
              %5 = affine.apply #map49(%arg7)
              %6 = affine.apply #map50(%arg7, %arg8)
              call @S0(%arg4, %5, %arg6, %6) : (memref<1000x1200xf64>, index, memref<500xf64>, index) -> ()
            }
            affine.for %arg10 = #map51(%arg7) to #map52(%arg7) {
              affine.if #set3(%arg7) {
                %5 = affine.apply #map49(%arg7)
                %6 = affine.apply #map53(%arg7, %arg10)
                call @S1(%arg4, %5, %6, %arg5) : (memref<1000x1200xf64>, index, index, memref<1000x1200xf64>) -> ()
              }
              affine.if #set3(%arg7) {
                %5 = affine.apply #map49(%arg7)
                %6 = affine.apply #map53(%arg7, %arg10)
                call @S2(%arg3, %5, %6, %arg5) : (memref<1000x1200xf64>, index, index, memref<1000x1200xf64>) -> ()
              }
            }
          }
          affine.for %arg10 = #map125(%arg7, %arg8)[%0] to min #map129(%arg7, %arg8, %arg9)[%2, %1] {
            affine.for %arg11 = #map55(%arg7, %arg8, %arg10) to min #map116(%arg8, %arg10)[%1] {
              %5 = affine.apply #map10(%arg10, %arg11)
              call @S0(%arg4, %arg10, %arg6, %5) : (memref<1000x1200xf64>, index, memref<500xf64>, index) -> ()
            }
          }
          affine.if #set51(%arg7, %arg8, %arg9)[%2, %1, %0] {
            affine.for %arg10 = max #map56(%arg7, %arg8, %arg9) to min #map130(%arg7, %arg8, %arg9)[%1, %0] {
              %5 = affine.apply #map58(%arg9)
              call @S2(%arg3, %5, %c0, %arg5) : (memref<1000x1200xf64>, index, index, memref<1000x1200xf64>) -> ()
              %6 = affine.apply #map58(%arg9)
              %7 = affine.apply #map59(%arg9, %arg10)
              call @S0(%arg4, %6, %arg6, %7) : (memref<1000x1200xf64>, index, memref<500xf64>, index) -> ()
            }
            affine.if #set14(%arg7, %arg9) {
              affine.for %arg10 = #map131(%arg7)[%0] to min #map132(%arg7, %arg8)[%1] {
                affine.if #set3(%arg7) {
                  %5 = affine.apply #map7(%arg7)
                  %6 = affine.apply #map12(%arg7, %arg10)
                  call @S0(%arg4, %5, %arg6, %6) : (memref<1000x1200xf64>, index, memref<500xf64>, index) -> ()
                }
              }
            }
            affine.if #set14(%arg7, %arg9) {
              affine.for %arg10 = #map131(%arg7)[%1] to min #map132(%arg7, %arg8)[%0] {
                affine.if #set3(%arg7) {
                  %5 = affine.apply #map7(%arg7)
                  call @S2(%arg3, %5, %c0, %arg5) : (memref<1000x1200xf64>, index, index, memref<1000x1200xf64>) -> ()
                }
              }
            }
          }
          affine.if #set52(%arg7, %arg8, %arg9)[%2] {
            affine.if #set6(%arg7) {
              %5 = affine.apply #map49(%arg7)
              call @S0(%arg4, %5, %arg6, %c0) : (memref<1000x1200xf64>, index, memref<500xf64>, index) -> ()
            }
          }
          affine.if #set53(%arg7, %arg8, %arg9)[%2, %1, %0] {
            affine.if #set6(%arg7) {
              %5 = affine.apply #map49(%arg7)
              %6 = affine.apply #map50(%arg7, %arg8)
              call @S0(%arg4, %5, %arg6, %6) : (memref<1000x1200xf64>, index, memref<500xf64>, index) -> ()
            }
          }
          affine.for %arg10 = #map125(%arg7, %arg8)[%1] to min #map133(%arg7, %arg8, %arg9)[%2, %0] {
            call @S2(%arg3, %arg10, %c0, %arg5) : (memref<1000x1200xf64>, index, index, memref<1000x1200xf64>) -> ()
            affine.for %arg11 = #map27(%arg10) to min #map116(%arg9, %arg10)[%1] {
              %5 = affine.apply #map10(%arg10, %arg11)
              call @S1(%arg4, %arg10, %5, %arg5) : (memref<1000x1200xf64>, index, index, memref<1000x1200xf64>) -> ()
              %6 = affine.apply #map10(%arg10, %arg11)
              call @S2(%arg3, %arg10, %6, %arg5) : (memref<1000x1200xf64>, index, index, memref<1000x1200xf64>) -> ()
            }
            affine.for %arg11 = #map66(%arg7, %arg8, %arg10) to min #map116(%arg8, %arg10)[%0] {
              call @S2(%arg3, %arg10, %c0, %arg5) : (memref<1000x1200xf64>, index, index, memref<1000x1200xf64>) -> ()
              affine.for %arg12 = #map27(%arg10) to min #map116(%arg9, %arg10)[%1] {
                %5 = affine.apply #map29(%arg10, %arg12)
                call @S3(%arg5, %arg10, %5, %arg4, %arg3) : (memref<1000x1200xf64>, index, index, memref<1000x1200xf64>, memref<1000x1200xf64>) -> ()
                %6 = affine.apply #map10(%arg10, %arg12)
                call @S1(%arg4, %arg10, %6, %arg5) : (memref<1000x1200xf64>, index, index, memref<1000x1200xf64>) -> ()
                %7 = affine.apply #map10(%arg10, %arg12)
                call @S2(%arg3, %arg10, %7, %arg5) : (memref<1000x1200xf64>, index, index, memref<1000x1200xf64>) -> ()
              }
            }
          }
          affine.if #set54(%arg7, %arg8, %arg9)[%2, %1, %0] {
            %5 = affine.apply #map43(%arg7, %arg8)[%0]
            call @S2(%arg3, %5, %c0, %arg5) : (memref<1000x1200xf64>, index, index, memref<1000x1200xf64>) -> ()
            affine.for %arg10 = #map125(%arg7, %arg8)[%0] to min #map126(%arg7, %arg8, %arg9)[%1, %0] {
              %6 = affine.apply #map43(%arg7, %arg8)[%0]
              %7 = affine.apply #map46(%arg7, %arg8, %arg10)[%0]
              call @S1(%arg4, %6, %7, %arg5) : (memref<1000x1200xf64>, index, index, memref<1000x1200xf64>) -> ()
              %8 = affine.apply #map43(%arg7, %arg8)[%0]
              %9 = affine.apply #map46(%arg7, %arg8, %arg10)[%0]
              call @S2(%arg3, %8, %9, %arg5) : (memref<1000x1200xf64>, index, index, memref<1000x1200xf64>) -> ()
            }
          }
          affine.if #set55(%arg7, %arg8, %arg9)[%2, %1, %0] {
            affine.if #set3(%arg7) {
              %5 = affine.apply #map49(%arg7)
              call @S2(%arg3, %5, %c0, %arg5) : (memref<1000x1200xf64>, index, index, memref<1000x1200xf64>) -> ()
            }
            affine.for %arg10 = #map51(%arg7) to min #map134(%arg7)[%1] {
              affine.if #set3(%arg7) {
                %5 = affine.apply #map49(%arg7)
                %6 = affine.apply #map53(%arg7, %arg10)
                call @S1(%arg4, %5, %6, %arg5) : (memref<1000x1200xf64>, index, index, memref<1000x1200xf64>) -> ()
              }
              affine.if #set3(%arg7) {
                %5 = affine.apply #map49(%arg7)
                %6 = affine.apply #map53(%arg7, %arg10)
                call @S2(%arg3, %5, %6, %arg5) : (memref<1000x1200xf64>, index, index, memref<1000x1200xf64>) -> ()
              }
            }
          }
          affine.if #set56(%arg7, %arg8, %arg9)[%2, %1, %0] {
            affine.if #set6(%arg7) {
              %5 = affine.apply #map49(%arg7)
              call @S2(%arg3, %5, %c0, %arg5) : (memref<1000x1200xf64>, index, index, memref<1000x1200xf64>) -> ()
            }
          }
        }
        affine.if #set57(%arg7)[%2] {
          affine.if #set3(%arg7) {
            affine.for %arg9 = max #map135(%arg7, %arg8)[%1, %0] to %2 {
              affine.for %arg10 = #map22(%arg8) to min #map115(%arg7, %arg8, %arg9)[%0] {
                affine.for %arg11 = #map31(%arg7) to min #map118(%arg7, %arg9)[%1] {
                  %5 = affine.apply #map29(%arg9, %arg11)
                  call @S3(%arg5, %arg9, %5, %arg4, %arg3) : (memref<1000x1200xf64>, index, index, memref<1000x1200xf64>, memref<1000x1200xf64>) -> ()
                  %6 = affine.apply #map10(%arg9, %arg11)
                  call @S1(%arg4, %arg9, %6, %arg5) : (memref<1000x1200xf64>, index, index, memref<1000x1200xf64>) -> ()
                  %7 = affine.apply #map10(%arg9, %arg11)
                  call @S2(%arg3, %arg9, %7, %arg5) : (memref<1000x1200xf64>, index, index, memref<1000x1200xf64>) -> ()
                }
              }
              affine.if #set47(%arg7, %arg8, %arg9)[%0] {
                affine.for %arg10 = #map31(%arg7) to min #map118(%arg7, %arg9)[%1] {
                  %5 = affine.apply #map29(%arg9, %arg10)
                  call @S3(%arg5, %arg9, %5, %arg4, %arg3) : (memref<1000x1200xf64>, index, index, memref<1000x1200xf64>, memref<1000x1200xf64>) -> ()
                }
              }
            }
          }
        }
        affine.for %arg9 = #map70(%arg7) to min #map136(%arg7, %arg8)[%2, %1, %0] {
          affine.if #set58(%arg7, %arg8, %arg9)[%1] {
            affine.for %arg10 = #map22(%arg9) to min #map137(%arg7, %arg9)[%1] {
              affine.if #set6(%arg7) {
                %5 = affine.apply #map15(%arg7)
                %6 = affine.apply #map18(%arg7, %arg10)
                call @S1(%arg4, %5, %6, %arg5) : (memref<1000x1200xf64>, index, index, memref<1000x1200xf64>) -> ()
              }
            }
            affine.for %arg10 = #map22(%arg9) to min #map137(%arg7, %arg9)[%1] {
              affine.if #set6(%arg7) {
                %5 = affine.apply #map15(%arg7)
                %6 = affine.apply #map19(%arg7, %arg10)
                call @S3(%arg5, %5, %6, %arg4, %arg3) : (memref<1000x1200xf64>, index, index, memref<1000x1200xf64>, memref<1000x1200xf64>) -> ()
              }
            }
          }
          affine.for %arg10 = max #map138(%arg7, %arg8, %arg9)[%1, %0] to min #map139(%arg7, %arg8)[%2, %0] {
            affine.if #set9(%arg7, %arg8, %arg10) {
              affine.for %arg11 = #map22(%arg9) to min #map116(%arg9, %arg10)[%1] {
                %5 = affine.apply #map10(%arg10, %arg11)
                call @S1(%arg4, %arg10, %5, %arg5) : (memref<1000x1200xf64>, index, index, memref<1000x1200xf64>) -> ()
                %6 = affine.apply #map10(%arg10, %arg11)
                call @S2(%arg3, %arg10, %6, %arg5) : (memref<1000x1200xf64>, index, index, memref<1000x1200xf64>) -> ()
              }
            }
            affine.if #set22(%arg7, %arg8) {
              affine.for %arg11 = #map22(%arg9) to min #map116(%arg9, %arg10)[%1] {
                affine.if #set6(%arg7) {
                  %5 = affine.apply #map10(%arg10, %arg11)
                  call @S1(%arg4, %arg10, %5, %arg5) : (memref<1000x1200xf64>, index, index, memref<1000x1200xf64>) -> ()
                }
              }
            }
            affine.for %arg11 = max #map37(%arg7, %arg8, %arg10) to min #map124(%arg7, %arg8, %arg10)[%0] {
              affine.for %arg12 = #map22(%arg9) to min #map116(%arg9, %arg10)[%1] {
                %5 = affine.apply #map29(%arg10, %arg12)
                call @S3(%arg5, %arg10, %5, %arg4, %arg3) : (memref<1000x1200xf64>, index, index, memref<1000x1200xf64>, memref<1000x1200xf64>) -> ()
                %6 = affine.apply #map10(%arg10, %arg12)
                call @S1(%arg4, %arg10, %6, %arg5) : (memref<1000x1200xf64>, index, index, memref<1000x1200xf64>) -> ()
                %7 = affine.apply #map10(%arg10, %arg12)
                call @S2(%arg3, %arg10, %7, %arg5) : (memref<1000x1200xf64>, index, index, memref<1000x1200xf64>) -> ()
              }
            }
            affine.if #set48(%arg7, %arg8, %arg10)[%0] {
              affine.for %arg11 = #map22(%arg9) to min #map116(%arg9, %arg10)[%1] {
                %5 = affine.apply #map29(%arg10, %arg11)
                call @S3(%arg5, %arg10, %5, %arg4, %arg3) : (memref<1000x1200xf64>, index, index, memref<1000x1200xf64>, memref<1000x1200xf64>) -> ()
              }
            }
          }
          affine.if #set59(%arg7, %arg8)[%2, %0] {
            affine.for %arg10 = #map22(%arg9) to min #map140(%arg7, %arg9)[%1] {
              %5 = affine.apply #map49(%arg7)
              %6 = affine.apply #map53(%arg7, %arg10)
              call @S1(%arg4, %5, %6, %arg5) : (memref<1000x1200xf64>, index, index, memref<1000x1200xf64>) -> ()
              %7 = affine.apply #map49(%arg7)
              %8 = affine.apply #map53(%arg7, %arg10)
              call @S2(%arg3, %7, %8, %arg5) : (memref<1000x1200xf64>, index, index, memref<1000x1200xf64>) -> ()
            }
          }
          affine.if #set60(%arg7, %arg8)[%2, %0] {
            affine.for %arg10 = #map22(%arg9) to min #map126(%arg7, %arg8, %arg9)[%1, %0] {
              %5 = affine.apply #map43(%arg7, %arg8)[%0]
              %6 = affine.apply #map46(%arg7, %arg8, %arg10)[%0]
              call @S1(%arg4, %5, %6, %arg5) : (memref<1000x1200xf64>, index, index, memref<1000x1200xf64>) -> ()
              %7 = affine.apply #map43(%arg7, %arg8)[%0]
              %8 = affine.apply #map46(%arg7, %arg8, %arg10)[%0]
              call @S2(%arg3, %7, %8, %arg5) : (memref<1000x1200xf64>, index, index, memref<1000x1200xf64>) -> ()
            }
          }
          affine.if #set61(%arg7, %arg8)[%2] {
            affine.for %arg10 = #map22(%arg9) to min #map140(%arg7, %arg9)[%1] {
              affine.if #set6(%arg7) {
                %5 = affine.apply #map49(%arg7)
                %6 = affine.apply #map53(%arg7, %arg10)
                call @S1(%arg4, %5, %6, %arg5) : (memref<1000x1200xf64>, index, index, memref<1000x1200xf64>) -> ()
              }
            }
          }
        }
        affine.if #set59(%arg7, %arg8)[%2, %0] {
          affine.if #set62(%arg7)[%1] {
            %5 = affine.apply #map49(%arg7)
            %6 = affine.apply #map99()[%1]
            call @S1(%arg4, %5, %6, %arg5) : (memref<1000x1200xf64>, index, index, memref<1000x1200xf64>) -> ()
            %7 = affine.apply #map49(%arg7)
            %8 = affine.apply #map99()[%1]
            call @S2(%arg3, %7, %8, %arg5) : (memref<1000x1200xf64>, index, index, memref<1000x1200xf64>) -> ()
          }
        }
        affine.if #set60(%arg7, %arg8)[%2, %0] {
          affine.if #set63()[%1, %0] {
            %5 = affine.apply #map43(%arg7, %arg8)[%0]
            %6 = affine.apply #map99()[%1]
            call @S1(%arg4, %5, %6, %arg5) : (memref<1000x1200xf64>, index, index, memref<1000x1200xf64>) -> ()
            %7 = affine.apply #map43(%arg7, %arg8)[%0]
            %8 = affine.apply #map99()[%1]
            call @S2(%arg3, %7, %8, %arg5) : (memref<1000x1200xf64>, index, index, memref<1000x1200xf64>) -> ()
          }
        }
        affine.if #set61(%arg7, %arg8)[%2] {
          affine.if #set62(%arg7)[%1] {
            affine.if #set6(%arg7) {
              %5 = affine.apply #map49(%arg7)
              %6 = affine.apply #map99()[%1]
              call @S1(%arg4, %5, %6, %arg5) : (memref<1000x1200xf64>, index, index, memref<1000x1200xf64>) -> ()
            }
          }
        }
      }
      affine.if #set64(%arg7)[%1, %0] {
        affine.if #set65()[%0] {
          call @S2(%arg3, %c0, %c0, %arg5) : (memref<1000x1200xf64>, index, index, memref<1000x1200xf64>) -> ()
          %5 = affine.apply #map99()[%0]
          call @S0(%arg4, %c0, %arg6, %5) : (memref<1000x1200xf64>, index, memref<500xf64>, index) -> ()
          affine.for %arg8 = 1 to min #map141()[%1] {
            call @S1(%arg4, %c0, %arg8, %arg5) : (memref<1000x1200xf64>, index, index, memref<1000x1200xf64>) -> ()
            call @S2(%arg3, %c0, %arg8, %arg5) : (memref<1000x1200xf64>, index, index, memref<1000x1200xf64>) -> ()
          }
          affine.for %arg8 = %0 to min #map142()[%1, %0] {
            call @S0(%arg4, %c0, %arg6, %arg8) : (memref<1000x1200xf64>, index, memref<500xf64>, index) -> ()
          }
          affine.for %arg8 = 1 to min #map143()[%2, %1, %0] {
            affine.for %arg9 = #map144(%arg8)[%0] to min #map145(%arg8)[%1, %0] {
              %6 = affine.apply #map10(%arg8, %arg9)
              call @S0(%arg4, %arg8, %arg6, %6) : (memref<1000x1200xf64>, index, memref<500xf64>, index) -> ()
            }
          }
          affine.for %arg8 = 1 to #map146()[%1] {
            affine.for %arg9 = #map22(%arg8) to min #map147(%arg8)[%1] {
              call @S1(%arg4, %c0, %arg9, %arg5) : (memref<1000x1200xf64>, index, index, memref<1000x1200xf64>) -> ()
              call @S2(%arg3, %c0, %arg9, %arg5) : (memref<1000x1200xf64>, index, index, memref<1000x1200xf64>) -> ()
            }
          }
        }
      }
      %3 = affine.apply #map148()[%2, %0]
      affine.if #set66(%arg7)[%2, %1, %0, %3] {
        %5 = affine.apply #map79(%arg7)
        affine.if #set67(%5)[%2] {
          affine.for %arg8 = max #map149(%arg7)[%1, %3] to %2 {
            affine.for %arg9 = #map150()[%3] to min #map151(%arg7, %arg8)[%1, %3] {
              %6 = affine.apply #map10(%arg8, %arg9)
              call @S0(%arg4, %arg8, %arg6, %6) : (memref<1000x1200xf64>, index, memref<500xf64>, index) -> ()
            }
          }
        }
      }
      affine.for %arg8 = #map152(%arg7)[%0] to min #map153(%arg7)[%2, %1] {
        affine.for %arg9 = max #map84(%arg7) to min #map111(%arg7)[%2] {
          affine.for %arg10 = max #map113(%arg7, %arg8, %arg9)[%1] to min #map154(%arg7, %arg8, %arg9)[%2, %1] {
            affine.for %arg11 = max #map86(%arg7, %arg8, %arg10) to min #map124(%arg7, %arg8, %arg10)[%1] {
              %5 = affine.apply #map10(%arg10, %arg11)
              call @S0(%arg4, %arg10, %arg6, %5) : (memref<1000x1200xf64>, index, memref<500xf64>, index) -> ()
            }
          }
        }
      }
      %4 = affine.apply #map148()[%2, %1]
      affine.if #set66(%arg7)[%2, %1, %0, %4] {
        affine.for %arg8 = #map79(%arg7) to #map101()[%2, %1] {
          affine.for %arg9 = max #map149(%arg7)[%0, %4] to %2 {
            affine.for %arg10 = #map150()[%4] to min #map151(%arg7, %arg9)[%0, %4] {
              affine.if #set33(%arg8, %arg9) {
                call @S2(%arg3, %arg9, %c0, %arg5) : (memref<1000x1200xf64>, index, index, memref<1000x1200xf64>) -> ()
              }
              affine.for %arg11 = max #map89(%arg8, %arg9) to min #map116(%arg8, %arg9)[%1] {
                %5 = affine.apply #map29(%arg9, %arg11)
                call @S3(%arg5, %arg9, %5, %arg4, %arg3) : (memref<1000x1200xf64>, index, index, memref<1000x1200xf64>, memref<1000x1200xf64>) -> ()
                %6 = affine.apply #map10(%arg9, %arg11)
                call @S1(%arg4, %arg9, %6, %arg5) : (memref<1000x1200xf64>, index, index, memref<1000x1200xf64>) -> ()
                %7 = affine.apply #map10(%arg9, %arg11)
                call @S2(%arg3, %arg9, %7, %arg5) : (memref<1000x1200xf64>, index, index, memref<1000x1200xf64>) -> ()
              }
            }
            affine.if #set68(%arg7, %arg9)[%0, %4] {
              affine.for %arg10 = max #map89(%arg8, %arg9) to min #map116(%arg8, %arg9)[%1] {
                %5 = affine.apply #map29(%arg9, %arg10)
                call @S3(%arg5, %arg9, %5, %arg4, %arg3) : (memref<1000x1200xf64>, index, index, memref<1000x1200xf64>, memref<1000x1200xf64>) -> ()
              }
            }
          }
        }
      }
      affine.for %arg8 = #map152(%arg7)[%1] to min #map155(%arg7)[%2, %0] {
        affine.if #set45(%arg7, %arg8)[%0] {
          affine.if #set3(%arg7) {
            affine.if #set46(%arg7)[%0] {
              %5 = affine.apply #map7(%arg7)
              call @S2(%arg3, %5, %c0, %arg5) : (memref<1000x1200xf64>, index, index, memref<1000x1200xf64>) -> ()
            }
          }
        }
        affine.for %arg9 = max #map110(%arg7, %arg8)[%0] to min #map136(%arg7, %arg8)[%2, %1, %0] {
          affine.for %arg10 = max #map156(%arg7, %arg8, %arg9)[%1, %0] to min #map133(%arg7, %arg8, %arg9)[%2, %0] {
            affine.if #set35(%arg7, %arg10) {
              affine.if #set33(%arg9, %arg10) {
                call @S2(%arg3, %arg10, %c0, %arg5) : (memref<1000x1200xf64>, index, index, memref<1000x1200xf64>) -> ()
              }
              affine.for %arg11 = max #map89(%arg9, %arg10) to min #map116(%arg9, %arg10)[%1] {
                %5 = affine.apply #map10(%arg10, %arg11)
                call @S1(%arg4, %arg10, %5, %arg5) : (memref<1000x1200xf64>, index, index, memref<1000x1200xf64>) -> ()
                %6 = affine.apply #map10(%arg10, %arg11)
                call @S2(%arg3, %arg10, %6, %arg5) : (memref<1000x1200xf64>, index, index, memref<1000x1200xf64>) -> ()
              }
            }
            affine.for %arg11 = max #map93(%arg7, %arg8, %arg10) to min #map124(%arg7, %arg8, %arg10)[%0] {
              affine.if #set33(%arg9, %arg10) {
                call @S2(%arg3, %arg10, %c0, %arg5) : (memref<1000x1200xf64>, index, index, memref<1000x1200xf64>) -> ()
              }
              affine.for %arg12 = max #map89(%arg9, %arg10) to min #map116(%arg9, %arg10)[%1] {
                %5 = affine.apply #map29(%arg10, %arg12)
                call @S3(%arg5, %arg10, %5, %arg4, %arg3) : (memref<1000x1200xf64>, index, index, memref<1000x1200xf64>, memref<1000x1200xf64>) -> ()
                %6 = affine.apply #map10(%arg10, %arg12)
                call @S1(%arg4, %arg10, %6, %arg5) : (memref<1000x1200xf64>, index, index, memref<1000x1200xf64>) -> ()
                %7 = affine.apply #map10(%arg10, %arg12)
                call @S2(%arg3, %arg10, %7, %arg5) : (memref<1000x1200xf64>, index, index, memref<1000x1200xf64>) -> ()
              }
            }
            affine.if #set48(%arg7, %arg8, %arg10)[%0] {
              affine.for %arg11 = max #map89(%arg9, %arg10) to min #map116(%arg9, %arg10)[%1] {
                %5 = affine.apply #map29(%arg10, %arg11)
                call @S3(%arg5, %arg10, %5, %arg4, %arg3) : (memref<1000x1200xf64>, index, index, memref<1000x1200xf64>, memref<1000x1200xf64>) -> ()
              }
            }
          }
          affine.if #set69(%arg7, %arg8, %arg9)[%2, %0] {
            affine.if #set8(%arg7, %arg9) {
              affine.if #set3(%arg7) {
                %5 = affine.apply #map49(%arg7)
                call @S2(%arg3, %5, %c0, %arg5) : (memref<1000x1200xf64>, index, index, memref<1000x1200xf64>) -> ()
              }
            }
            affine.for %arg10 = max #map94(%arg7, %arg9) to min #map140(%arg7, %arg9)[%1] {
              %5 = affine.apply #map49(%arg7)
              %6 = affine.apply #map53(%arg7, %arg10)
              call @S1(%arg4, %5, %6, %arg5) : (memref<1000x1200xf64>, index, index, memref<1000x1200xf64>) -> ()
              %7 = affine.apply #map49(%arg7)
              %8 = affine.apply #map53(%arg7, %arg10)
              call @S2(%arg3, %7, %8, %arg5) : (memref<1000x1200xf64>, index, index, memref<1000x1200xf64>) -> ()
            }
          }
          affine.if #set70(%arg7, %arg8, %arg9)[%2, %0] {
            affine.if #set71(%arg7, %arg8, %arg9)[%0] {
              %5 = affine.apply #map43(%arg7, %arg8)[%0]
              call @S2(%arg3, %5, %c0, %arg5) : (memref<1000x1200xf64>, index, index, memref<1000x1200xf64>) -> ()
            }
            affine.for %arg10 = max #map157(%arg7, %arg8, %arg9)[%0] to min #map126(%arg7, %arg8, %arg9)[%1, %0] {
              %5 = affine.apply #map43(%arg7, %arg8)[%0]
              %6 = affine.apply #map46(%arg7, %arg8, %arg10)[%0]
              call @S1(%arg4, %5, %6, %arg5) : (memref<1000x1200xf64>, index, index, memref<1000x1200xf64>) -> ()
              %7 = affine.apply #map43(%arg7, %arg8)[%0]
              %8 = affine.apply #map46(%arg7, %arg8, %arg10)[%0]
              call @S2(%arg3, %7, %8, %arg5) : (memref<1000x1200xf64>, index, index, memref<1000x1200xf64>) -> ()
            }
          }
          affine.if #set72(%arg7, %arg8, %arg9)[%2, %0] {
            affine.for %arg10 = max #map56(%arg7, %arg8, %arg9) to min #map158(%arg7, %arg8, %arg9)[%0] {
              %5 = affine.apply #map58(%arg9)
              call @S2(%arg3, %5, %c0, %arg5) : (memref<1000x1200xf64>, index, index, memref<1000x1200xf64>) -> ()
            }
          }
        }
        affine.if #set73(%arg7, %arg8)[%2, %0] {
          affine.if #set62(%arg7)[%1] {
            %5 = affine.apply #map49(%arg7)
            %6 = affine.apply #map99()[%1]
            call @S1(%arg4, %5, %6, %arg5) : (memref<1000x1200xf64>, index, index, memref<1000x1200xf64>) -> ()
            %7 = affine.apply #map49(%arg7)
            %8 = affine.apply #map99()[%1]
            call @S2(%arg3, %7, %8, %arg5) : (memref<1000x1200xf64>, index, index, memref<1000x1200xf64>) -> ()
          }
        }
        affine.if #set60(%arg7, %arg8)[%2, %0] {
          affine.if #set63()[%1, %0] {
            %5 = affine.apply #map43(%arg7, %arg8)[%0]
            %6 = affine.apply #map99()[%1]
            call @S1(%arg4, %5, %6, %arg5) : (memref<1000x1200xf64>, index, index, memref<1000x1200xf64>) -> ()
            %7 = affine.apply #map43(%arg7, %arg8)[%0]
            %8 = affine.apply #map99()[%1]
            call @S2(%arg3, %7, %8, %arg5) : (memref<1000x1200xf64>, index, index, memref<1000x1200xf64>) -> ()
          }
        }
      }
      affine.if #set74(%arg7)[%1, %0] {
        affine.if #set65()[%0] {
          affine.for %arg8 = 0 to #map146()[%1] {
            affine.if #set42(%arg8) {
              call @S2(%arg3, %c0, %c0, %arg5) : (memref<1000x1200xf64>, index, index, memref<1000x1200xf64>) -> ()
            }
            affine.for %arg9 = max #map97(%arg8) to min #map147(%arg8)[%1] {
              call @S1(%arg4, %c0, %arg9, %arg5) : (memref<1000x1200xf64>, index, index, memref<1000x1200xf64>) -> ()
              call @S2(%arg3, %c0, %arg9, %arg5) : (memref<1000x1200xf64>, index, index, memref<1000x1200xf64>) -> ()
            }
          }
        }
      }
    }
    return
  }
}

